cnn2_model0.1.pt (torch_old, 11118 bytes, 6 tensors)

weight f4 [1, 1, 3, 3]
000000 cc f5 14 3f dc d9 2e bf 45 92 71 40 d9 01 33 be
       0.58187556 -0.6830118 3.7745526 -0.17481174
000010 4d c8 d4 3e 4f c3 07 c0 32 14 4a be 67 16 6d 39
       0.41559067 -2.1212957 -0.19734266 0.00022610427
000020 21 68 1c 3f
       0.6109639

weight f4 [1, 1, 3, 3]
000000 2c f7 26 be 07 60 96 be 1d ab f7 bf 2c 8f d0 be
       -0.16305226 -0.29370138 -1.9349095 -0.4073423
000010 ce 2e 4a be bc 27 37 3f 45 6a 81 3e c5 a1 46 be
       -0.19744417 0.71545005 0.2527639 -0.19397648
000020 2d 40 32 be
       -0.17407294

weight f4 [1, 1, 3, 3]
000000 a3 48 15 3f c7 a4 f9 be d2 9a 80 3f 05 0d 3d 3d
       0.5831396 -0.48758528 1.0047247 0.046154995
000010 1c 5b da be 15 0f bc 3e 0e 05 4d 3e ea 49 b6 bd
       -0.42647636 0.36730257 0.2002146 -0.08900817
000020 89 a3 af 3e
       0.34304455

weight f4 [4, 4]
000000 6a bf 7e be c1 8b e6 be 9c ac 19 be 1d ee ae be
       -0.24877706 -0.450285 -0.15007252 -0.3416604
000010 04 3d 3b bb 6f d2 69 bb 0f ee f5 ba 8d 08 61 bb
       -0.0028570304 -0.0035678407 -0.0018762964 -0.0034337372
000020 20 01 b3 bb 36 87 df bb e3 1c 6b bb 24 23 d7 bb
       -0.0054627806 -0.0068215383 -0.0035875372 -0.0065654684
000030 f4 54 bc 38 ec 30 eb 38 ab 5d 77 38 ce 58 e2 38
       8.980362e-05 0.000112147856 5.8976624e-05 0.00010793061

bias f4 [4]
000000 ad 1f 78 bd 1f 78 ac b9 b7 f1 24 ba db 73 2d 37
       -0.060577083 -0.00032895894 -0.0006292122 1.0338578e-05

weight f4 [1, 4]
000000 8f 4f 17 3e 59 5e 8c 3a e9 33 06 3b 74 2f 0d b8
       0.14776443 0.001070927 0.0020477718 -3.3661214e-05
