cnn2_model0.075.pt (torch_old, 11118 bytes, 6 tensors)

weight f4 [1, 1, 3, 3]
0	0xc0d979a9	-6.796101
1	0xc16568c3	-14.338077
2	0xc09fcc8e	-4.99372
3	0xc2133b3a	-36.80784
4	0xc166e05e	-14.429777
5	0xc0883b00	-4.257202
6	0xc1835b82	-16.419682
7	0xc09488d4	-4.6417027
8	0xc092dc12	-4.589364

weight f4 [1, 1, 3, 3]
0	0xc02fcb3c	-2.7467794
1	0xbf4fd4db	-0.81184167
2	0x404fb517	3.2454278
3	0xc02316aa	-2.5482583
4	0xc0287829	-2.632334
5	0x404c8c06	3.1960464
6	0xc13dbed7	-11.859092
7	0xc0ac034e	-5.3754034
8	0xbeaead51	-0.34116605

weight f4 [1, 1, 3, 3]
0	0x3fbb3633	1.4625915
1	0x3f6ca402	0.92437756
2	0xc0254789	-2.5824912
3	0xbfb1caa0	-1.3889961
4	0xbfe91682	-1.8209994
5	0xc10cd394	-8.801655
6	0x40046014	2.0683641
7	0x3e7aa567	0.24477158
8	0xbf1c4f29	-0.6105829

weight f4 [4, 4]
0	0xafcc7908	-3.7193382e-10
1	0x2bdd5a90	1.5728131e-12
2	0x2e1b5560	3.5318748e-11
3	0xafbc18cc	-3.421462e-10
4	0xbeef84ca	-0.46780998
5	0xbe5ca1c4	-0.21546084
6	0x3f14772d	0.5799435
7	0xbcf315fe	-0.029673573
8	0x3d712684	0.058874622
9	0xbcc8a98a	-0.024494905
10	0x3db318ff	0.08745002
11	0x3be523f7	0.0069928127
12	0xbdf5e3ef	-0.120063655
13	0x3d81e5f2	0.06342687
14	0x3c7310c6	0.014835542
15	0xbe424700	-0.18972397

bias f4 [4]
0	0x2f1a4998	1.4032364e-10
1	0x3e255af7	0.16147982
2	0xbd81ecdc	-0.063440055
3	0x3d4992dd	0.049212325

weight f4 [1, 4]
0	0x2fc686b7	3.611171e-10
1	0x3e6ba646	0.23012647
2	0xbd972a37	-0.07381099
3	0x3e069356	0.13142142
