cnn3_model0.08.pt (torch_old, 12211 bytes, 8 tensors)

weight f4 [4, 1, 3, 3]
00000000: bd54 1a3e 1c1f 18be 65cb cfbf 65c8 3bbe
00000010: 6b4e 8a3e 6d63 0040 de9e 5abd 5036 9b3e
00000020: 41f7 04c0 e621 7d3f 3c11 14c0 3beb c13f
00000030: 24a7 bb3d 6a98 f73e 9bac 88bf a4b9 923d
00000040: 132a 0ebf b6d9 0abe b461 a13c e82f 39c0
00000050: 07ec bd3e 4dbf c73d a75c 6540 e29f 693e
00000060: 58c4 a33e f909 28c0 b134 013e 3d62 f03e
00000070: 4177 c23e 58b6 ab3e 2f3a 33be b37d 103f
00000080: 6e70 933d 4212 2740 4fa2 0cc0 94c7 a7be
0.15071388 -0.14855617 -1.6233946 -0.18338163 0.27012953 2.0060685 -0.053374164 0.30314875
-2.0775912 0.9887985 -2.313552 1.5149912 0.09162739 0.4835847 -1.0677675 0.071643144
-0.5553295 -0.13559613 0.019699909 -2.893549 0.37094137 0.097532846 3.58378 0.22814897
0.31985736 -2.6256087 0.12617756 0.4694995 0.3798161 0.33537555 -0.17502664 0.564418
0.07199179 2.6104894 -2.1974065 -0.32769454

bias f4 [4]
00000000: fd0a 15bc 1264 bcbc e5ea 4fbe 2428 a73e
-0.009096858 -0.022996936 -0.20304449 0.32647812

weight f4 [4, 4, 3, 3]
00000000: d780 6f3e c9be 9d3e 7b15 bc3f 7fe3 f4be
00000010: 9f9c 3cbd 5f2f 183f fcba 6ebd ac39 663f
00000020: c26b 943e 56e9 943e c6b3 503f b280 113b
00000030: 2b81 cebe 0e95 2f3e d343 21bf 6ffb ed3e
00000040: d183 4b3e 174e 1abe f3b8 0bbe 58da a8be
00000050: 6e3a 98be 3718 10be 4124 873f c180 543f
00000060: 215e 19bd 95a7 d4be c7dc 20bf 72af 74be
00000070: ebf0 963d 828d ea3d bb23 03bf d79e ac3e
00000080: df44 b73d edc8 87bc cb79 59be 13fd c1be
00000090: 49e4 3fbd de4b 41be 255d bc3e f9c0 5b3e
000000a0: 6916 c4bb 68d8 18be b96b b73f 7615 0fbf
000000b0: 2184 be3d cc5f a73e b773 56be d488 0a3d
000000c0: ed4a 69be d796 2e3f 131a 15be ec67 ca3e
000000d0: b89d 4ebf fce5 0c3f cbdf a7bd 62d9 f8bd
000000e0: f2d2 7ebd 8a19 00bf ee00 e1be f756 133f
000000f0: 065b 0dbf 6cc7 acbf 2136 42bc 9df4 073f
00000100: 1f05 113f b61c 63bf 548d 53bf 71ac 05bd
00000110: 9063 953e 7e48 6d3f 320a 9abd 15a5 273f
00000120: 8a0d 0d3f af25 fcbe 71d7 8ebd b947 1bbe
00000130: a01f f1be 5cb5 443f 6f5d b5bd 7d33 783f
00000140: d756 2ac0 21dd 043d c01b cd3a 49c5 8e3f
00000150: 933a 333d 1d7e a0be 79a9 fbbb 6902 bfbd
00000160: d34a 31bf 5b5b bd3d f064 9c3e 3f3d aabe
00000170: 7001 21bf e162 143d 89d6 2bbc a722 e4bd
00000180: d705 62be 7bdd 45bf 6bba d6be 40df 073d
00000190: 405a b23e 3fe8 363c 4ed3 81bd 7b54 f8be
000001a0: d10c 17be 714c 8cbd 0f39 8d3b c82f 34be
000001b0: 1688 1abc 8671 3b3e dae4 95bd 9112 8b3f
000001c0: fe88 02bf c13c 46bf 1b1e a3bf 0679 50bd
000001d0: 6590 15bc acd6 4cbf b746 40bf 1307 193f
000001e0: ee7c c4be 2e15 89be f2f2 3b3e 06e5 713e
000001f0: 9c07 8a3f 5c8c 043f 0b2f 343e 836e dfbf
00000200: 84a2 593d e042 04bf 20dc ecbe f0eb ba3e
00000210: 11dc a23d 8a02 a3be 4955 25be ba48 47bf
00000220: 0a0a e23e cebf 403f 447d dcbe cd6d 58be
00000230: ce44 1abf 0ca7 36be 053c 8bbc fdd9 843e
0.23388992 0.3080962 1.4694055 -0.47829816 -0.046047803 0.5944728 -0.05828379 0.8993175
0.28988463 0.2908427 0.8152431 0.0022201953 -0.40332922 0.17146704 -0.62994117 0.4648089
0.19874503 -0.15068851 -0.13644771 -0.32979083 -0.29732078 -0.14071737 1.0557939 0.8300896
-0.037443284 -0.41534105 -0.6283688 -0.23895052 0.0737017 0.11452772 -0.51226395 0.33714935
0.08948683 -0.016575301 -0.21237867 -0.37888393 -0.04684857 -0.18876597 0.36789814 0.21460332
-0.005984117 -0.14926302 1.4329749 -0.5589212 0.09302545 0.32690275 -0.20942579 0.033821896
-0.22782488 0.68198913 -0.14560728 0.3953241 -0.8070941 0.5503843 -0.08196982 -0.121508375
-0.062212892 -0.5003897 -0.43946022 0.5755457 -0.55217016 -1.3498359 -0.011853726 0.53107625
0.5664844 -0.88715684 -0.82637525 -0.032635156 0.29177523 0.9268874 -0.07521476 0.6548627
0.55098784 -0.492475 -0.06974686 -0.15164079 -0.4709444 0.7683923 -0.08855712 0.96953565
-2.6615503 0.032437447 0.0015648529 1.1153957 0.043757033 -0.31346217 -0.007680115 -0.093266316
-0.692548 0.0924594 0.3054576 -0.33249852 -0.6289282 0.03622711 -0.010488161 -0.11139422
-0.2207254 -0.7729108 -0.419391 0.033171892 0.3483448 0.01116377 -0.06339131 -0.48501953
-0.14750983 -0.068505175 0.0043097804 -0.17596352 -0.0094318595 0.18305025 -0.073190406 1.0865041
-0.50990283 -0.77436453 -1.2743562 -0.050896667 -0.009128665 -0.80015063 -0.751079 0.5977642
-0.38376564 -0.2677397 0.18354395 0.23622522 1.0783572 0.5177667 0.1759607 -1.74556
0.053133503 -0.51664543 -0.46261692 0.3650813 0.079521306 -0.31837875 -0.16145815 -0.77845347
0.44148284 0.7529267 -0.4306432 -0.21135636 -0.6026124 -0.17837161 -0.016996393 0.25947562

bias f4 [4]
00000000: 225f fcbe 2871 f7bc 8bc5 123e ee45 3c3e
-0.4929133 -0.030205324 0.14333169 0.18386051

weight f4 [4, 4, 2, 2]
00000000: 0f25 c13d 9447 eb3c 659a 1abd 4c6a f73d
00000010: 82c6 b0bd 16be 28bd 519b 2fbe d7f9 57be
00000020: bbb4 073e b0da f8be 2dcc 53bd e4bd 28bf
00000030: 4195 6f3d c568 6ebd d03f 8dbd 8485 96bd
00000040: 3c6d 223e 10cd 093f ec76 da3c 8a8a 5b3e
00000050: bbd9 57be e8d0 053d e5ff b4bd fc4e a1bd
00000060: 4b80 2b3e c422 a03e f19b 203c cc86 0dbd
00000070: c095 e8bd 8896 09bf 4466 6a3c ff9e 65be
00000080: bd8b 5a3e f688 503d 9ff3 14be 2e83 d0bd
00000090: fd43 4fbe 3be7 56be 2530 2f3e d61f 033e
000000a0: 97ca 103e 47e5 32be 09e2 9fbc 22ed 4fbd
000000b0: 3918 02bf 789e b33c 012c d0be d0fd b13c
000000c0: 640d 1f3d 75f5 85be d7b9 debd 73db 4c3d
000000d0: ce51 dabe 2e86 a83d 90a1 19bf 5c3b 12be
000000e0: 76d0 4dbe 115b 153d df48 02be 6c24 483e
000000f0: 3ed4 77be ec3a bf3d f82a e8bd 02a6 173e
0.094308965 0.028720655 -0.0377449 0.120808214 -0.08631612 -0.041196905 -0.17149092 -0.210914
0.13252537 -0.48604345 -0.05170839 -0.6591475 0.05849195 -0.058205385 -0.06896937 -0.07349685
0.15861982 0.53828526 0.026668034 0.21439567 -0.21079151 0.03266993 -0.088378705 -0.07876393
0.16748159 0.31276524 0.009802804 -0.03455238 -0.113566875 -0.5374532 0.014306609 -0.22423933
0.21342368 0.050911866 -0.14546059 -0.101812705 -0.20240779 -0.20986645 0.1710821 0.12805113
0.14139782 -0.17470275 -0.019516962 -0.050763257 -0.5081821 0.02192615 -0.40658572 0.021727473
0.03883113 -0.2616383 -0.1087529 0.05001397 -0.42640537 0.08228718 -0.6001215 -0.14280456
-0.20099053 0.0364638 -0.1272311 0.19545144 -0.24202058 0.0933741 -0.11336321 0.1480942

bias f4 [4]
00000000: dbeb e43d 4507 83be a88a 0ebe 1d9c df3d
0.11177798 -0.25591484 -0.1392008 0.10918448

weight f4 [1, 4, 3, 3]
00000000: dd0e 1f3d bc47 1c3b 7b79 0e3d fecf 7abc
00000010: eea0 7bbc 7b49 643e 1757 8c3e 3ddc 2cbd
00000020: 782b c73e d797 89be bb61 c33d 8cba 08bf
00000030: 415a e3bb cbe2 bcbd 9272 3e3e ba59 933d
00000040: 0bf8 e03c b814 9bbe f592 02bf ac8f 993d
00000050: 68de 85bd 5dce 423d 3524 8cbd fea1 9f3b
00000060: 9cd4 53be 73f6 2e3b d987 1c3e 2cd3 90bd
00000070: 663b 003e 3a70 f9bc b4ed d1bc 33aa e73d
00000080: ebad 893d 0395 fd3e 3fcb 47bd d6fc 26bc
0.038832534 0.0023846468 0.03478382 -0.015308378 -0.015358193 0.22293656 0.27410194 -0.042202223
0.38900352 -0.26873657 0.09540125 -0.5340965 -0.0069382493 -0.09222945 0.18598393 0.07194848
0.027462026 -0.30289245 -0.5100549 0.07498106 -0.06536561 0.047560085 -0.068428434 0.004871606
-0.20686573 0.0026697188 0.15286197 -0.07071528 0.12522659 -0.030449022 -0.025626041 0.1131176
0.06722625 0.4952775 -0.048777815 -0.010192117

weight f4 [1, 4]
00000000: 1bed 23be 93fd 0abe 7b0a 303e b013 ac3d
-0.16008417 -0.13573293 0.17191498 0.084021926
