cnn4_model0.1.pt (torch_old, 14285 bytes, 12 tensors)

weight f4 [4, 1, 3, 3]
000000 68 7a d9 bf 8e 70 6e bd 90 ab 94 3e 40 52 8b be
       -1.699048 -0.05821281 0.29037142 -0.2721119
000010 fe 10 04 40 0e 48 54 bf 11 f7 31 3f af a2 88 c0
       2.0635371 -0.82922447 0.6951762 -4.269859
000020 30 73 d6 bd e6 d3 24 3e 5c e8 b3 40 0f bf ea 3e
       -0.10471189 0.16096458 5.622114 0.4584889
000030 e2 99 58 3f cd 59 8f c0 3d 72 3c 3f 17 0b 9d 3e
       0.84609807 -4.479712 0.73611814 0.30672523
000040 d9 e2 8c 3f 43 3f e4 3e fc a7 ca 3e 3b 2c c8 3f
       1.1006728 0.44579515 0.39581287 1.5638498
000050 5b b4 f7 3e 16 82 1f 3e c9 f3 61 40 5c bd 51 3d
       0.48379788 0.15576968 3.5305045 0.051205978
000060 27 7d 12 c0 9f 3b 1d bd 2b 72 55 c0 7f 31 f7 bf
       -2.2888887 -0.038386937 -3.3350933 -1.931198
000070 e9 d1 0f be 24 23 ac bf 70 0a 17 bf 4f 78 9d 40
       -0.14044918 -1.3448224 -0.590003 4.920936
000080 70 df 46 bf bd 56 5a 3f d0 67 eb be 14 0f 9b c0
       -0.7768469 0.852886 -0.4597764 -4.8455906

bias f4 [4]
000000 c0 50 a8 be eb 33 2c be da 04 92 3f c0 0f 4d bf
       -0.32874107 -0.1681668 1.140773 -0.8010216

weight f4 [4, 4, 3, 3]
000000 39 28 04 bf 4d a8 d2 be 94 08 cd 3f 36 66 03 3f
       -0.51623875 -0.41144028 1.6018243 0.51327837
000010 b6 de 92 3b c0 c1 88 bf be 76 f4 3d df c1 00 be
       0.0044821156 -1.0684128 0.11936711 -0.12573956
000020 dd 2e 4b bf 02 49 25 3c 60 cf a9 3f c3 1e ba be
       -0.7936838 0.010088207 1.3266411 -0.36351594
000030 23 ae 61 bd 44 92 30 3e 1e dc 8d 3f 86 4b d5 3e
       -0.05509771 0.17243296 1.10828 0.41659182
000040 1b 4f 67 bf 1a 47 09 40 19 45 73 be 32 22 1c 3d
       -0.9035508 2.1449647 -0.23756827 0.03811855
000050 c2 3e 31 3f 13 8c e4 3b b2 b3 e9 3e c1 f0 2c c0
       0.69236386 0.006974706 0.4564491 -2.7021945
000060 99 66 85 3f 05 70 27 be aa 4d 0a 40 11 76 44 3e
       1.0421935 -0.16351326 2.1609902 0.19185664
000070 00 f0 f5 3e 8a e3 b5 be 53 49 2c bf 1f db e9 be
       0.48034668 -0.3552516 -0.67299384 -0.4567499
000080 86 ce 60 bf a0 ae f1 bd e9 b5 9e 3e 08 63 96 40
       -0.8781513 -0.11800885 0.3099816 4.699589
000090 d9 6f 06 40 96 a3 7c 3f 56 e0 25 bf 00 db 4f bf
       2.1005766 0.9868711 -0.64795434 -0.8119354
0000a0 56 2b 46 3f 39 1f 0b bf 26 c7 78 3d e0 ed 5a bf
       0.77409875 -0.54344517 0.060736798 -0.8551922
0000b0 30 2b 9e 3f a9 82 bf bf 1f 9e b8 3e a4 bd 29 bf
       1.235693 -1.4961749 0.36058137 -0.66304994
0000c0 4b 75 6a 3d 36 96 e0 bf e3 a1 83 bd 27 5b 92 bf
       0.057240766 -1.7545841 -0.06427362 -1.1434067
0000d0 7b 22 09 3c 91 9b 88 be 25 13 d7 3f 13 32 ae 3f
       0.008370037 -0.26681188 1.6802717 1.3609031
0000e0 87 b2 0b 3f e0 51 1a c0 97 c3 3b 3f 7c 86 ce 3e
       0.54569286 -2.4112473 0.7334532 0.40336978
0000f0 a8 e1 26 bf 99 5d 35 3f 25 1d a1 bb ad df b7 bd
       -0.65188074 0.70845944 -0.0049168044 -0.0897821
000100 ca a3 2c be f4 4d 97 be 54 55 05 c0 a3 b2 02 40
       -0.16859356 -0.2955166 -2.083333 2.0421531
000110 f5 5b 14 3e a9 b4 1d 3f 76 5b b3 bf c9 9c 97 be
       0.14488204 0.6160379 -1.4012287 -0.29611805
000120 75 ea 43 bf 41 e1 94 3e 39 37 9b be a6 30 e2 be
       -0.7652963 0.29078105 -0.3031557 -0.4417774
000130 24 1f 23 40 89 78 64 bf 66 56 15 3d 63 f2 df bf
       2.5487757 -0.8924642 0.03645935 -1.7495846
000140 99 6d 56 be f3 b8 92 be f2 23 92 3e d8 ab 69 bf
       -0.20940246 -0.2865673 0.2854305 -0.9127784
000150 5e 30 35 bf cc c5 06 c0 98 62 87 b9 8d 2f de 3f
       -0.7077693 -2.1058226 -0.00025822665 1.7358261
000160 90 b9 67 3e 08 4f ca 3f 8e 9a c4 3e aa 5e b2 be
       0.2262938 1.5805368 0.38399166 -0.34837848
000170 1c 45 19 3f 9d 30 b1 bf 50 92 df 3f 18 ed df 3e
       0.5987108 -1.3842961 1.7466526 0.43735576
000180 4e 16 c1 3c 22 09 a9 3f 39 3a 86 bf 44 86 39 3f
       0.023570206 1.3205912 -1.0486518 0.724705
000190 34 3a d4 bf c8 39 d8 be 39 86 d1 3d f1 94 8b 3f
       -1.6580262 -0.42231584 0.10230679 1.0904828
0001a0 2a 01 36 bf 58 04 46 3f 9c 8c 1e c0 a5 e4 80 bf
       -0.71095526 0.7735038 -2.477332 -1.0069777
0001b0 85 06 03 bf 0a 01 99 be 32 16 82 bf f5 17 35 3f
       -0.51181823 -0.29883605 -1.0163023 0.7073968
0001c0 ca ab b7 bc 55 a8 f1 be 7f 7a 1e bc ea 8b 1b 3f
       -0.022420783 -0.4719874 -0.00967276 0.60760367
0001d0 de c6 b1 bd d2 db 44 c0 64 26 60 c0 50 4c bd be
       -0.08680509 -3.0759168 -3.5023432 -0.36972284
0001e0 31 52 e3 be 3a ba e3 bf 92 31 a0 be 75 0e 83 3f
       -0.44398645 -1.7791207 -0.3128782 1.0238787
0001f0 36 5a 43 3f 71 86 da be fc 55 1f 40 de 05 d6 bd
       0.76309526 -0.42680696 2.489623 -0.10450338
000200 55 81 2b 3f ab 14 68 be 79 16 26 3f 08 01 e0 3e
       0.6699422 -0.22664134 0.6487804 0.43750787
000210 b9 7c 32 3f bd 0a a1 be 76 cf c8 3d 4d e4 af 3f
       0.6972156 -0.31453505 0.09805195 1.3741547
000220 0e ce 6b 3e 6e 15 05 3e 5e 4b 9d bf a6 6c 2a 3e
       0.23027822 0.12996456 -1.2288625 0.16643009
000230 67 1c 2d be 4a e8 eb be c5 c7 2e 3f b9 f4 66 3e
       -0.16905366 -0.4607566 0.68273574 0.22554292

bias f4 [4]
000000 7c 6c d0 bf 15 4a e8 3c cd 35 b7 3f e0 9f 8c bf
       -1.6283107 0.028355638 1.4313294 -1.098629

weight f4 [4, 4, 3, 3]
000000 3f 7a 8c bf 63 6b 02 3e 70 5c cb bd 68 cf 36 40
       -1.0974807 0.12736277 -0.099297404 2.856409
000010 d6 d2 04 3f 53 28 51 bf 7a a3 7e be 45 c8 29 3e
       0.5188421 -0.81702155 -0.24867049 0.16580303
000020 4b 77 dc be 63 9f ce be 40 f2 05 3e 62 63 6f bf
       -0.43059763 -0.40355977 0.13080692 -0.9351102
000030 e0 d1 1a 3f ed 19 41 3f 98 93 91 3d 14 70 f3 be
       0.60476494 0.75430185 0.071082294 -0.47546446
000040 c9 be a1 be d4 4e 7f bd 25 8f 3e bf 42 1e 7b bf
       -0.3159087 -0.062331036 -0.7443717 -0.98093045
000050 b5 61 32 bf 61 77 b3 bd d0 42 89 3e c2 96 7c bc
       -0.6968034 -0.08763004 0.26808786 -0.015416803
000060 b5 b1 eb bf 93 e7 80 be c0 11 43 bf 4b 30 da 3c
       -1.8413607 -0.25176677 -0.7619896 0.026634356
000070 81 f8 74 bc 0e d4 3e 3e d7 4f c8 be b5 a8 d2 bb
       -0.014951826 0.1863558 -0.39123413 -0.006428803
000080 1c 85 5f 3f 5e ee 6f 3f 17 1a 79 be 93 cf 1e 3f
       0.87312484 0.93723094 -0.24326359 0.62035483
000090 de ed 90 bd 04 81 08 3f 4a 9a aa 3c c0 39 cf 3e
       -0.070766196 0.5332186 0.020825524 0.40473747
0000a0 ba 34 a8 3e cc a3 95 3e 02 06 0b 3f e8 64 00 be
       0.32852727 0.2922653 0.5430604 -0.12538493
0000b0 c6 d7 de be 72 e2 a2 3f 78 33 79 be ba ac 68 3f
       -0.43523997 1.2725356 -0.2433604 0.9088856
0000c0 8b 04 66 bf 69 7a ed 3e da 71 4d bf ea 8b 21 bf
       -0.8985068 0.46382454 -0.8025185 -0.63104117
0000d0 14 63 5c bf 43 4b b7 3e 19 a8 bb 3f d0 32 27 bf
       -0.8608868 0.35799608 1.4660674 -0.6531191
0000e0 5c 62 28 3f b1 47 82 bf b1 8b fe 3d 94 37 53 be
       0.65775084 -1.0178128 0.12428988 -0.2062667
0000f0 35 6d 82 bc ae 1b c2 be cd c5 d0 3e db 6c b6 be
       -0.015921215 -0.37911743 0.4077591 -0.35629925
000100 7d c2 52 3d c9 b7 35 3e a3 34 4f bf f1 b5 e9 3e
       0.05145501 0.1774589 -0.8093969 0.45646623
000110 42 57 17 bf 94 50 19 c0 a0 83 d4 3f 47 c4 14 3f
       -0.5911752 -2.395543 1.6602669 0.58111995
000120 28 e3 ce bf 85 97 37 3e 6a 4b ca 3e e7 63 11 3f
       -1.6163073 0.17928894 0.3951066 0.56793064
000130 a5 d8 bb be aa 4f a1 3e 58 6c 13 3d 55 d3 11 bf
       -0.36688724 0.3150609 0.035991997 -0.5696309
000140 f1 76 b7 3e 9d 23 c9 3e ae 77 a8 be 71 46 7b 3e
       0.35832933 0.39284983 -0.32903808 0.2453859
000150 47 21 6c 3d 6a 5d a9 3e 94 7b b0 bf db 10 70 3d
       0.057648923 0.33079082 -1.3787713 0.058609825
000160 e6 04 be be d6 33 f4 bf b6 c4 e9 3e 47 2e 0b 3f
       -0.37113112 -1.9078319 0.4565789 0.5436749
000170 78 46 ac 3e 35 9a 8f be 96 9b ff 3f c5 3e 3e bf
       0.33647513 -0.28047338 1.9969356 -0.7431453
000180 df 99 92 be 80 87 9e be e7 36 e8 be ca 7f 02 bc
       -0.2863302 -0.30962753 -0.45354387 -0.007965038
000190 4a e5 02 3f 7d d3 f2 bd db 5e 45 3e e6 98 8f 3f
       0.5113112 -0.118567444 0.19274466 1.1218536
0001a0 cb 61 07 bf 1c fc 0e be 17 bb 9a 3e 70 c7 13 c0
       -0.52883595 -0.1396336 0.30220863 -2.3090477
0001b0 0e ca d2 3e dd 34 b9 3e e2 c0 6d bd 2d 0b 1c bf
       0.4116978 0.36173144 -0.058045276 -0.6095455
0001c0 83 9a 9a bd ce 43 79 be aa a5 a3 3e 94 b4 e9 be
       -0.07549002 -0.24342272 0.3196233 -0.45645583
0001d0 0e f3 0b bd 5d 99 4a 3f c1 11 79 3f 0b 8f 96 be
       -0.034167342 0.79140264 0.97292715 -0.29406008
0001e0 d1 eb 87 3a 0b ca 6e be 99 5f 7f 3d 84 16 34 bd
       0.0010369961 -0.23319261 0.06234703 -0.043966785
0001f0 35 f7 e4 bd f8 99 8b be 80 91 13 3e 10 7c 99 3f
       -0.111799635 -0.27265906 0.14410973 1.1990986
000200 60 e3 2e 3f 80 07 45 be 7f 4c 8c 3d b9 6a 51 3f
       0.68315697 -0.19241142 0.06850528 0.8180347
000210 ae 8c 2b be cb 44 2e bf 9e bb 00 3f 9f 3a c9 3c
       -0.16752884 -0.6807372 0.5028628 0.024564086
000220 c2 1b a3 3f 4d 62 02 bd 46 53 c2 bd 2f b3 19 3f
       1.2742846 -0.03183203 -0.094885394 0.6003904
000230 9a cd ed 3b fd c2 c5 bd a7 ab 80 bf 62 07 a8 3e
       0.0072571756 -0.09656332 -1.0052384 0.32818133

bias f4 [4]
000000 96 ad 40 3f 78 55 59 3c 76 8d 4c c0 7c 55 96 40
       0.7526487 0.013265006 -3.196134 4.697935

weight f4 [4, 4, 3, 3]
000000 a5 97 2b 3e 96 d1 34 be e6 fe 33 be ee f0 7f 3e
       0.16757067 -0.17658076 -0.17577705 0.24994251
000010 66 22 1c 3e 63 3f dc 3e 70 d7 96 be fb cb a3 bd
       0.15247497 0.4301711 -0.2946124 -0.079978906
000020 3f 95 7e be ac 6b 32 be 21 21 a5 be 4e 64 3e 3f
       -0.2486162 -0.17423886 -0.32251838 0.743718
000030 a8 08 6a 3c 1a b2 7d be 61 c7 59 3f 0d ce 6a 3d
       0.01428429 -0.24774972 0.85069853 0.05732541
000040 3a ce 04 be 44 b2 1c 3f d8 cb 03 be f9 f0 01 3f
       -0.12969294 0.6120951 -0.12870729 0.5075832
000050 73 69 07 3f 9a c5 9d be 25 5f 6a 3f 9e cf 88 3f
       0.5289528 -0.3081482 0.9155143 1.068836
000060 22 13 16 3e ad 81 24 3e ec 43 22 be 63 7a 3b be
       0.14655736 0.16065092 -0.15846223 -0.18308406
000070 19 5f ae bf e7 26 ac bf 0c ee 38 bf be 0e 79 3c
       -1.3622772 -1.3449372 -0.7223823 0.015201269
000080 a2 35 98 bf f7 11 49 3e a6 2f c7 3f 59 f6 83 bf
       -1.1891367 0.1963576 1.5561416 -1.0309554
000090 6e e2 4a 3d 9a 1f 2c be ef f7 1d be ac 85 52 be
       0.049532346 -0.1680893 -0.1542661 -0.20558804
0000a0 c2 8c 9a 3f d2 d3 4d bf 20 e4 95 3e 25 74 ba 3e
       1.2074206 -0.8040134 0.29275608 0.36416736
0000b0 36 cc 91 3f da 16 9b bd bd e6 84 be 27 84 74 3e
       1.1390445 -0.07572718 -0.2595729 0.23878537
0000c0 3d bd 31 be 48 0a 91 3c af 3d f4 be 1b d0 01 3f
       -0.17357345 0.017705098 -0.4770331 0.5070817
0000d0 41 57 04 3f 70 bb 82 be a6 d1 61 3e 3c 22 f9 3d
       0.5169564 -0.25533628 0.22052631 0.12164733
0000e0 c5 25 42 3f da 7b c8 3d 22 28 36 3f 65 aa 0f 3d
       0.7583888 0.09789248 0.7115499 0.03507461
0000f0 43 8c 8e 3f e7 06 19 be 6e 4e 23 bf 53 a0 e2 be
       1.1136554 -0.1494404 -0.6379155 -0.44262943
000100 e2 9b 0d 3e 59 7e c1 bf 98 87 4a bf 9a 5d 39 be
       0.13828996 -1.5116683 -0.7911315 -0.18102112
000110 68 8b cd bf 0c 02 62 bf 26 76 2e bf 8f 9d 90 bf
       -1.6058168 -0.88284373 -0.6814903 -1.1298083
000120 21 d0 eb be 46 da 9b 3e a7 c7 1e 3e ee 37 30 bf
       -0.46057227 0.30439967 0.15505849 -0.6883534
000130 de 7d d8 be 03 6c 93 3d 8a 24 9f 3e 10 1d 59 be
       -0.4228353 0.07198336 0.31082565 -0.21202493
000140 c9 7d a9 be 3b fe 22 bd 05 78 14 3e 74 f6 4a 3f
       -0.3310378 -0.039793234 0.14498909 0.7928231
000150 a9 a8 41 bf f6 c7 48 bf b4 9b f8 3e 04 79 49 be
       -0.7564798 -0.78430116 0.48556292 -0.1967507
000160 eb 2e 09 bf 47 a9 1f 3f b3 a0 42 bd bd b9 7f 3e
       -0.53587216 0.6236767 -0.047516536 0.24973197
000170 c7 0e c5 3e ee e2 9b bf cd 07 b5 3d 08 3a 7e be
       0.38487837 -1.2178628 0.088393785 -0.24826825
000180 40 55 85 bf f4 ef 45 be 1a a8 ab be ad da 57 3d
       -1.0416641 -0.19329816 -0.3352669 0.05269878
000190 1f d9 48 3f 0e 06 9f 3e c5 7c c9 3f 51 2b 19 bf
       0.784563 0.31059307 1.5741202 -0.5983172
0001a0 8c e4 a3 be 0e 22 cf 3f 17 ed c5 3d ce 73 99 3e
       -0.32010305 1.6182268 0.09664362 0.29971164
0001b0 15 c7 18 3f 09 13 c9 3e 07 9f ca 3e 12 a5 a6 3e
       0.59678775 0.39272335 0.39574453 0.32547814
0001c0 79 9c b6 bd 39 26 b6 3d 30 b6 04 be de 15 b1 bd
       -0.089165635 0.08894009 -0.12960124 -0.08646749
0001d0 31 00 a5 3d 1c 70 19 bf 2a 40 8f bf 09 f7 aa be
       0.08056677 -0.5993669 -1.1191456 -0.33391598
0001e0 d2 a7 eb be e4 65 0f bf fd 40 28 3d 88 ba 41 bd
       -0.46026474 -0.5601485 0.041077603 -0.04729703
0001f0 c0 9d 24 3f f9 7c 35 bd f2 63 37 bf 4d 33 0b bf
       0.6430321 -0.044308636 -0.7163688 -0.54375154
000200 f9 19 56 be 92 f1 ab 3c 56 d0 6c be 1e 86 56 be
       -0.20908345 0.020989213 -0.23126349 -0.20949599
000210 c7 d4 4e 3e 50 b2 f8 bd 32 db 62 bb 0e 87 cd 3e
       0.20198356 -0.121433854 -0.0034615514 0.401421
000220 be 5b d2 3f c3 43 47 3e 14 96 58 3f 32 ad ef bd
       1.6434247 0.19459443 0.84604 -0.11702956
000230 67 e7 c0 bf 10 4e b3 3e 62 90 1d 3e 6b 8f 9d 3e
       -1.5070618 0.35020494 0.15387109 0.30773482

bias f4 [4]
000000 33 36 d2 bf 04 23 85 3e 8c 1f 94 3f 2d 44 03 40
       -1.642279 0.26003277 1.1572127 2.0510361

weight f4 [4, 4, 2, 2]
000000 d4 d0 c3 3e a8 1c 8a 3e 41 ac 34 3e 93 30 3a 3e
       0.3824526 0.26974988 0.17643835 0.18182592
000010 e1 a2 48 be ce dd cf bd b0 6a d5 be 15 e2 a6 be
       -0.19593383 -0.10149728 -0.4168296 -0.32594362
000020 22 95 b1 bd a1 67 b3 3e 27 73 9f 3e 27 18 7a 3e
       -0.08671023 0.3504 0.31142542 0.24423276
000030 fc c5 8a bd e6 9b 59 be 51 ee 6f be 1d fb 47 bd
       -0.06776044 -0.21250877 -0.23430754 -0.048823465
000040 22 32 1e be 14 f6 86 3e 3a c3 ce be 1c 1a c6 3a
       -0.15448812 0.26359618 -0.4038332 0.0015113982
000050 62 79 76 3c a6 e1 81 bb cd 1f b1 3e 48 89 96 3e
       0.015043588 -0.003963667 0.34594575 0.29401612
000060 41 17 3a be 1a 35 c1 3d b8 cd 2b be bd c2 ef 3c
       -0.18172933 0.094339564 -0.16777694 0.029267663
000070 83 97 1c be 0b 5f 41 be 5e 47 8e 3c 61 f2 4e be
       -0.15292172 -0.18883912 0.017368015 -0.20209648
000080 94 59 7a bd 96 46 d2 3c 08 ae c1 bd 53 2b 98 be
       -0.061120585 0.025668424 -0.09457022 -0.29720554
000090 73 e8 cc be 1f 78 5c 3d b2 ad de be 73 0d d8 3e
       -0.40021095 0.053825494 -0.43491894 0.4219776
0000a0 da 50 20 be 27 46 d0 bd 25 8b 71 3e 8e 7c c2 bc
       -0.15655842 -0.101696305 0.23588236 -0.023741033
0000b0 4f 9b 66 be 0b 7b 37 3d dc 82 16 be 08 d4 25 be
       -0.22520183 0.044795077 -0.14698356 -0.16194165
0000c0 bb a0 d8 3e af ba 7c 3e bd 42 89 bd 3c 4c a2 3d
       0.42310128 0.24680589 -0.067021824 0.07924697
0000d0 1c 4f 58 bd 37 d3 51 3e e0 ed 9f bd 60 a2 b5 3d
       -0.05280982 0.20490728 -0.07809043 0.08868861
0000e0 94 e4 f7 3d f4 2c 44 3e ba 7a b3 3d 8c 4a 18 3e
       0.12104145 0.19157773 0.087636426 0.14872187
0000f0 a0 36 c4 3e 69 0d 0f be e1 39 1f be da 4b 46 bd
       0.38322926 -0.1396996 -0.15549423 -0.04841218

bias f4 [4]
000000 73 a8 b3 be 07 71 7d 3f c8 52 8d bd 7f fb e9 bd
       -0.35089454 0.9900059 -0.06900555 -0.11424922

weight f4 [1, 4, 3, 3]
000000 7b 6c 33 3e 50 ca 40 be 28 3a 09 bf 83 56 ba ba
       0.17521851 -0.18827176 -0.53604364 -0.0014216456
000010 de 85 07 be 15 20 51 be a0 39 a5 3e 95 b1 86 3e
       -0.1323466 -0.20422395 0.32270527 0.2630736
000020 1a f7 43 3e 0a eb 95 3e ca c2 da 3d 44 81 77 bd
       0.1913723 0.29280883 0.10681684 -0.06042601
000030 6f 16 4c 3d 31 a7 79 3e e5 d3 01 bd e2 7a 97 be
       0.04982608 0.24380185 -0.03169622 -0.2958594
000040 f4 34 11 bb dc 46 95 be a1 f5 cb 3e 29 57 3f 3e
       -0.0022156807 -0.29155624 0.39835837 0.18685593
000050 fb 63 63 3d 5f ee 5e 3e 87 25 24 be e2 3d 13 be
       0.05551527 0.21770619 -0.1602994 -0.14379075
000060 d2 ac 9e 3e 73 84 72 be 5e ac d4 be be 72 68 be
       0.30991226 -0.23683338 -0.41537756 -0.2270002
000070 35 96 c9 bd 25 32 e6 be 41 6c 6d 3e 3a 9c 1c 3e
       -0.09843103 -0.44960132 0.23185827 0.1529397
000080 33 a8 8b bd 63 a6 51 3e 9d 83 73 3e 06 cd 1d be
       -0.06819191 0.20473628 0.23780675 -0.15410241

weight f4 [1, 4]
000000 5d 07 ab 3d 98 8c c8 be ac fb ad be 86 19 07 3f
       0.08351014 -0.39169765 -0.33981073 0.5277332
