cnn_model.pt (torch_old, 13249 bytes, 3 tensors)

weight f4 [1, 1, 3, 3]
00000000: 8e71 d93e a6ab 8c3d f6e8 633e 1676 c63d
00000010: 2f2b 8cbe 1db7 483e 85bf cfbd aafc 103e
00000020: 86ef bb3e
0.42469448 0.06868677 0.22256836 0.09690492 -0.27376696 0.19601102 -0.10143951 0.14158884
0.3670618

weight f4 [1, 1, 2, 2]
00000000: d12b 1dbe 0ca0 65be 7d19 90bd 8700 f83c
-0.15348746 -0.22424334 -0.070361115 0.030273689

weight f4 [1, 4]
00000000: 38d2 fabd f013 14be 7c32 173d c60d f0bc
-0.12247127 -0.1446073 0.03691338 -0.029303443
