dnn_model0.1.pt (torch_old, 105253 bytes, 13 tensors)

weight f4 [64, 64]
0	0xbb06fec0	-0.002059862
1	0xbd13d364	-0.03609027
2	0xbdb71f3a	-0.08941503
3	0xbd03241c	-0.03201686
4	0x3ded8e52	0.11599411
5	0x3de9fcbe	0.1142516
6	0x3cb74680	0.022372484
7	0x3da1c8b0	0.07899606
8	0xbc86b660	-0.016444385
9	0xbde582ba	-0.11206575
10	0xbdda8b9a	-0.10671158
11	0xbcdbc290	-0.026826173
12	0x3b70c540	0.0036738664
13	0x3d8e9fd6	0.0696408
14	0x3dabc6d8	0.08387536
15	0x3bcf7e80	0.0063322186
16	0xbd7da658	-0.061926216
17	0x3bf831c0	0.00757429
18	0x3d153b90	0.036433756
19	0xbbbe2c80	-0.0058036447
20	0xbdbb74b4	-0.09153119
21	0x3c5855d0	0.013204053
22	0x3dc282f4	0.094976336
23	0xbc7e05d0	-0.0155043155
24	0x3dfd19c2	0.123584285
25	0x3dcfa3ca	0.10138662
26	0xbd9aa084	-0.07550147
27	0x3d0ab100	0.033860207
28	0xbdaf9f38	-0.085752904
29	0xbc88ffb8	-0.016723499
30	0x3c872230	0.016495794
31	0x3b84f3a0	0.0040573627
32	0xbdfdbb28	-0.12389213
33	0x3d94c5ca	0.07264288
34	0xbdc037a6	-0.09385614
35	0x3d4f57c0	0.050620794
36	0xbcf45c98	-0.029829308
37	0xbd938e78	-0.07204908
38	0xbc4cb4d0	-0.012494281
39	0xbdfa4d48	-0.122217715
40	0xbcb992b0	-0.022652954
41	0x3ccf40b8	0.025299415
42	0x3bd0eb00	0.0063756704
43	0x3cc14c50	0.023595959
44	0xbd5cbdfc	-0.05389212
45	0x3b27fa00	0.002563119
46	0xbda91e10	-0.08257687
47	0x3cb43b78	0.022001013
48	0x3de529f6	0.11189644
49	0xbb3af400	-0.0028526783
50	0x3c080820	0.008302718
51	0xbd26f44c	-0.040760323
52	0xbdf4a190	-0.11944878
53	0x3dde3c2e	0.10851322
54	0xbd8e255c	-0.069407195
55	0x3dbefe6c	0.09325871
56	0x3de15886	0.11003213
57	0x3d21a2c4	0.039461866
58	0xbda82642	-0.08210422
59	0x3dc4f69a	0.09617348
60	0xbdb2ce6c	-0.08730778
61	0x3dcc6986	0.099810645
62	0x3d584b48	0.05280617
63	0xbd91062e	-0.07081257
64	0x3db63758	0.08897275
65	0xbd42a104	-0.047516838
66	0x3cec4208	0.02884008
67	0xbd66b1a0	-0.05632174
68	0x3de22ca0	0.11043668
69	0xbde63cbe	-0.112420544
70	0x3ddabe6c	0.10680851
71	0xbdae588a	-0.08512981
72	0xbdad6100	-0.08465767
73	0x3dca6fa6	0.098845765
74	0xbcab8e18	-0.020941779
75	0xbdf51fba	-0.11968942
76	0x3d0649d8	0.032785267
77	0xbdd60696	-0.10450475
78	0x3de42ff6	0.1114196
79	0x3d30ac80	0.04313326
80	0x3d61f338	0.055163592
81	0xbdf5c1be	-0.11999844
82	0xbd145890	-0.036217272
83	0xbdacecc0	-0.08443594
84	0x3d3579f0	0.04430574
85	0xbd1f8088	-0.038940936
86	0x3dfdc1ce	0.12390481
87	0x3dbb2cce	0.09139405
88	0xbbbc6780	-0.005749643
89	0xbdf75bbc	-0.12078044
90	0xbc8e3008	-0.017356887
91	0xbc022310	-0.00794293
92	0xbdbd7030	-0.09249914
93	0xbcc51d88	-0.024061933
94	0x3d8262a2	0.06366469
95	0xbcbf71a0	-0.02336961
96	0xbdfcda2c	-0.123463005
97	0xbd09cd34	-0.033642963
98	0xbceb52b0	-0.028725952
99	0x3c4d0160	0.012512535
100	0xbd380bbc	-0.044933066
101	0x3d6b71d4	0.0574816
102	0xbd65ce3c	-0.056104884
103	0x3c2985b0	0.010346815
104	0xbc500500	-0.012696505
105	0xbd13a808	-0.03604892
106	0xbd25825c	-0.040407524
107	0x3c8deff8	0.01732634
108	0x3ddf6344	0.10907605
109	0x3b9bee40	0.004758626
110	0x3de2e1b0	0.11078203
111	0x3db24518	0.08704585
112	0x3dcea1e0	0.10089469
113	0xbda7dc7e	-0.081963524
114	0x3dae278c	0.08503637
115	0xbdd25eb0	-0.102719665
116	0x3d7fb800	0.062431335
117	0xbdf9f24c	-0.122044176
118	0xbdedf408	-0.11618811
119	0x3dcd176c	0.10014233
120	0x3d9af62e	0.07566486
121	0xba693e00	-0.00088974833
122	0x3ca38a88	0.019963518
123	0x3cf951e8	0.030434564
124	0xbd1fdd80	-0.0390296
125	0x3dd80092	0.10546984
126	0xbc0c28f0	-0.008554682
127	0x3ca43dd0	0.020049006
128	0x3db8f156	0.09030406
129	0x3dc7a13c	0.0974755
130	0xbdc0d966	-0.094164655
131	0x3c8cfba0	0.017209828
132	0xbda7a15e	-0.08185075
133	0x3d8edf38	0.06976169
134	0xbc083ce0	-0.008315295
135	0x3da532a0	0.080662966
136	0xbdbda586	-0.09260087
137	0x3c28b710	0.010297552
138	0xbdb5c142	-0.088747516
139	0xbc1be020	-0.009513885
140	0x3d56cad0	0.05243951
141	0xbd79b364	-0.060962096
142	0xbd439e9c	-0.047758684
143	0x3daa83a2	0.08325888
144	0xbcc747d8	-0.02432625
145	0xbd53b9d4	-0.05169089
146	0xbdc1a990	-0.094561696
147	0xbc9fd680	-0.019511461
148	0xbdb740ee	-0.08947931
149	0x3cbfec40	0.023428082
150	0x3bfbdda0	0.007686332
151	0x3de30cd2	0.1108643
152	0xbdfd292e	-0.1236137
153	0xbd10b8f4	-0.035332635
154	0x3d2ca930	0.042153537
155	0x39939e00	0.00028155744
156	0xbd02bbd4	-0.031917408
157	0xbcf0a6e8	-0.029376462
158	0xbdc3e1d0	-0.09564555
159	0x3de48572	0.11158265
160	0x3d80f880	0.062973976
161	0xbcf0b6d8	-0.029384062
162	0x3d249848	0.04018429
163	0x3d2743a4	0.04083599
164	0x3d71f964	0.059075728
165	0x3df735b0	0.12070787
166	0x3dd17c2a	0.102287605
167	0x3cb612c0	0.022225738
168	0xbdeb41da	-0.114871696
169	0x3d777e98	0.060423464
170	0xbd8f77bc	-0.070052594
171	0x3dfcac0c	0.12337503
172	0x3d9ae9da	0.07564135
173	0x3d34e7c8	0.044166356
174	0xbd965442	-0.0734029
175	0xbdb58d08	-0.0886479
176	0xbc57f3d0	-0.013180688
177	0xbda71f62	-0.08160283
178	0xbdca6852	-0.09883179
179	0xbc8763a8	-0.016527012
180	0xbbd72360	-0.0065654963
181	0x3d2140f0	0.03936857
182	0x3c2f9840	0.010717452
183	0x3d1af730	0.037833393
184	0xbd8a4210	-0.06750882
185	0xbc5e2dc0	-0.013560712
186	0x3b91e800	0.0044527054
187	0xbdc13298	-0.09433478
188	0x3df2194c	0.11821231
189	0x3d8f0426	0.06983213
190	0xbd9ba6a0	-0.076001406
191	0x3d7081a8	0.0587174
192	0xbdb000b4	-0.08593884
193	0xbcb85820	-0.022502959
194	0xbbfc4160	-0.007698223
195	0xbc06b830	-0.008222625
196	0xbd83fa9e	-0.06444286
197	0x3d23cae8	0.03998843
198	0xbbc70620	-0.006073728
199	0xbd98fa3a	-0.07469602
200	0xbab04900	-0.001344949
201	0x3dedf7e0	0.11619544
202	0xbddd9a56	-0.10820453
203	0xbdb29cba	-0.087212995
204	0x3d3d3e20	0.046201825
205	0x3d506778	0.050879925
206	0x3d9d8222	0.076908365
207	0xbd6ac458	-0.057316154
208	0xbd2599f8	-0.04043004
209	0x3cf7a2e0	0.030229032
210	0xbd527bbc	-0.051387534
211	0xbd4ece0c	-0.05048947
212	0xbc94fdd0	-0.018187433
213	0x3cdb50b8	0.026771888
214	0x3cc81c50	0.024427563
215	0x3de43db2	0.1114458
216	0xbd983310	-0.074316144
217	0xbdb38476	-0.08765499
218	0xbcb030e0	-0.02150768
219	0xbd1b413c	-0.03790401
220	0xbd2ef058	-0.04270968
221	0xbd33e7d8	-0.043922275
222	0x3cc14b28	0.023595408
223	0x3cf0ae80	0.029380083
224	0xbccaa458	-0.024736568
225	0xbd9a134e	-0.07523213
226	0xbdfcae74	-0.12337962
227	0xbd819d44	-0.06328824
228	0xbda80730	-0.08204496
229	0xbd95f560	-0.07322192
230	0x3dbf1f32	0.09332122
231	0xbde9fba8	-0.11424953
232	0x3d9ea698	0.07746619
233	0xbd5cfb74	-0.053950742
234	0x388ed800	6.811321e-05
235	0xbcce9640	-0.02521813
236	0x3dea4b58	0.11440152
237	0x3d14dc94	0.036343172
238	0x3d9e392e	0.0772575
239	0xbdbbde7e	-0.091732964
240	0x3defe7ca	0.11714132
241	0x3bab9540	0.005236298
242	0xbcccff00	-0.025023937
243	0xbd64e6b0	-0.055884063
244	0xbdd7ec80	-0.10543156
245	0x3d7c2720	0.06156075
246	0x3d443844	0.04790522
247	0x3dc6c24e	0.097050294
248	0x3bfbcec0	0.0076845586
249	0xbd7cd780	-0.061728954
250	0xbd299790	-0.041404307
251	0xbb563a40	-0.0032688528
252	0x3d7896d4	0.060690716
253	0xbd92ecc4	-0.07174066
254	0xbcb295b0	-0.021799892
255	0xbdefafde	-0.11703466

bias f4 [64]
0	0xbc79f350	-0.015255764
1	0x3df55fb2	0.11981143
2	0xbd5df860	-0.054191947
3	0x3da5d1fc	0.08096692
4	0xbd1e8468	-0.03870049
5	0x3b881b60	0.004153654
6	0xbb372c00	-0.002794981
7	0xbd8752c4	-0.06607583
8	0xbc080880	-0.008302808
9	0xbc8359c0	-0.016034007
10	0xbd152dc8	-0.036420614
11	0xbde00b18	-0.10939616
12	0xbda774ac	-0.0817655
13	0xbd9bf9ae	-0.07615982
14	0x3d6d7894	0.05797632
15	0x3c217150	0.009853676
16	0xbd9570f4	-0.07296935
17	0x3df4c450	0.11951506
18	0xbd59b66c	-0.053152487
19	0xbdaa8d9e	-0.083277926
20	0xbcc2a3a0	-0.023759663
21	0x3de4f070	0.11178672
22	0x3d9c8fec	0.076446384
23	0xbddd8c72	-0.108178034
24	0x3d295538	0.041341037
25	0x3d5b45bc	0.0535333
26	0x3d7e818c	0.062135264
27	0x3de03bfe	0.109489426
28	0x3d8fbc2e	0.07018314
29	0xbd8229b4	-0.063556105
30	0xbdf503c6	-0.1196361
31	0xbdad43de	-0.0846021
32	0x3d88d350	0.0668093
33	0x3c9fa028	0.019485548
34	0x3d20756c	0.039174482
35	0xbc95ea58	-0.01830022
36	0x3d5bcccc	0.053662106
37	0xbd5706e0	-0.05249679
38	0x3d686738	0.056739062
39	0x3cddb680	0.027064562
40	0xbdf12642	-0.11774875
41	0x3db9e900	0.09077644
42	0xbd6fb350	-0.058520615
43	0x3df5ae72	0.119961634
44	0x3d693974	0.056939557
45	0xbd856d5a	-0.06514998
46	0xbd03487c	-0.03205155
47	0x3daafc9a	0.08348961
48	0xbd8f53d6	-0.06998412
49	0xbd27406c	-0.04083292
50	0xbc1d8580	-0.009614348
51	0x3de2edf2	0.11080541
52	0x3dd5573a	0.10417028
53	0xbd8e015a	-0.069338515
54	0xbdd718ee	-0.10502802
55	0xbd8d0a6c	-0.068867534
56	0x3d5d077c	0.053962216
57	0x3d032ed4	0.03202708
58	0xbd917aec	-0.071035236
59	0x3b2051c0	0.002446279
60	0x3da0523e	0.078281865
61	0xbdef7a56	-0.116932556
62	0x3c162a30	0.009165332
63	0xbcab9630	-0.020945638

weight f4 [64, 64]
0	0xbdba9cea	-0.0911196
1	0xbdef9d64	-0.11699942
2	0x3de2a1f8	0.11066049
3	0xbc1245f0	-0.008927807
4	0xbd233a90	-0.03985077
5	0x3b4fecc0	0.0031726807
6	0xbdc560a0	-0.096375704
7	0x3bb613e0	0.0055565685
8	0xbd925286	-0.07144646
9	0x3c617e00	0.013762951
10	0xbca87380	-0.020562887
11	0xbcda8260	-0.026673496
12	0xbdcd792a	-0.10032876
13	0xbc0032e0	-0.00782463
14	0xbd0a5760	-0.033774734
15	0xbd5a8020	-0.053344846
16	0x3d9649a4	0.073382646
17	0x3c67bda0	0.014144331
18	0x3df6bb88	0.120474875
19	0x3dc2a57e	0.095042214
20	0xbcf1f370	-0.029535025
21	0xbd1f27cc	-0.038856313
22	0xbdec0d48	-0.11525971
23	0x3dd6a600	0.10480881
24	0xbdfae12c	-0.122499794
25	0xbde1f402	-0.11032869
26	0xbd5ce590	-0.053929865
27	0x3c5d7100	0.013515711
28	0xbdeb95ec	-0.11503205
29	0x3bb285c0	0.005448073
30	0xbdd0d7f8	-0.10197443
31	0xbdbd5834	-0.09245339
32	0xbde66b0e	-0.11250888
33	0xbdd69016	-0.10476701
34	0x3df9093e	0.12159966
35	0x3d3b3a60	0.045709968
36	0xbd657478	-0.056019276
37	0xbd3f699c	-0.046731576
38	0x3be68d40	0.0070358813
39	0xbd1ca738	-0.03824541
40	0xbdcf17e0	-0.10111976
41	0x3df8b560	0.121439695
42	0x3d816d6c	0.06319699
43	0x3d0816dc	0.033224925
44	0xbd91c4e2	-0.071176305
45	0xbdb47642	-0.088116184
46	0xbdcb8fe4	-0.09939554
47	0xbdd4ca2e	-0.10390125
48	0x3dd4e70a	0.1039563
49	0xbdc3e36c	-0.09564862
50	0xbc1f67c0	-0.009729326
51	0xbd01c5cc	-0.031682774
52	0xbdeec1de	-0.11658071
53	0x3dfd1346	0.12357192
54	0xbd899b9a	-0.06719132
55	0xbdd9745a	-0.106178954
56	0x3cc91a80	0.024548769
57	0xbd0fcb48	-0.035105973
58	0x3d023058	0.031784385
59	0xbdd5f02e	-0.10446201
60	0xbd4539bc	-0.048150763
61	0xbdd88722	-0.105726495
62	0x3d57afa8	0.052657753
63	0x3db5123a	0.08841367
64	0x3dc0bd66	0.09411125
65	0x3c844ff0	0.016151398
66	0xbdc903e6	-0.09815197
67	0x3db85640	0.09000826
68	0x3da65448	0.08121544
69	0xbd827b62	-0.0637119
70	0xbd6d5df4	-0.05795093
71	0xbae11880	-0.0017173439
72	0x3deb856e	0.11500059
73	0x3cb3be98	0.021941468
74	0x3d2d9b90	0.042384684
75	0xbdcbc1e0	-0.09949088
76	0xbd6b3f8c	-0.05743365
77	0xbddaee2a	-0.106899574
78	0xbdd4f6de	-0.10398649
79	0xbdd0b32a	-0.10190423
80	0xbc199590	-0.009374037
81	0x3c8f3820	0.017482817
82	0xbcca1878	-0.02466987
83	0x3d62b8c4	0.055351987
84	0xbd3aed7c	-0.04563664
85	0xbd759984	-0.059960857
86	0xbda70b42	-0.08156444
87	0x3d884d68	0.06655389
88	0xbd943fea	-0.07238753
89	0x3d8eae54	0.06966844
90	0x3c8a8e60	0.016913593
91	0xbd8f0cda	-0.06984873
92	0xbdaa3f2a	-0.08312829
93	0xbda1b760	-0.07896304
94	0x3c7f71c0	0.015591085
95	0xbdbaadfa	-0.09115215
96	0xbd7a14cc	-0.06105499
97	0xbdc4775e	-0.0959308
98	0xbd599bcc	-0.053127095
99	0x3d6cba8c	0.057795092
100	0xbdf981d4	-0.12182966
101	0xbd576a80	-0.0525918
102	0x3dddf6fc	0.10838124
103	0xbdaa470a	-0.08314331
104	0xbdf392f8	-0.118932664
105	0xbd8f1ff0	-0.069885135
106	0xbd5fafec	-0.05461113
107	0x3d7e57d8	0.062095493
108	0xbdb96528	-0.09052497
109	0xbd5a7a20	-0.053339124
110	0xbde6b9f8	-0.112659395
111	0xbd36863c	-0.04456161
112	0x3d5efdd4	0.054441288
113	0xbdf01408	-0.11722571
114	0x3d30b7d4	0.043144062
115	0xbdf82c7c	-0.1211786
116	0x3d855082	0.06509496
117	0x3d810d94	0.06301418
118	0x3dcd7840	0.100327015
119	0x3debc390	0.1151191
120	0x3c84c890	0.016208917
121	0xbd2ccaec	-0.04218571
122	0x3dabadc6	0.08382754
123	0x3df9e2e6	0.122014806
124	0xbc92d708	-0.0179248
125	0x3d2fecf0	0.04295057
126	0x3c49d1e0	0.0123181045
127	0xbd6caf20	-0.0577842
128	0x3d51bc0c	0.051204726
129	0x3d3736c8	0.044729978
130	0x3d7b6eac	0.06138484
131	0xbd0a8c0c	-0.033824965
132	0xbd1efcc0	-0.03881526
133	0xbda2541c	-0.07926199
134	0x3d8632a6	0.06552629
135	0xbdb57198	-0.08859557
136	0xbdc2ed38	-0.09517902
137	0xbd91f356	-0.07126491
138	0x3bf500e0	0.007476911
139	0x3df15ce0	0.117852926
140	0xbbf28360	-0.007400915
141	0x3daa353e	0.083109364
142	0xbdbec97a	-0.09315772
143	0x3de69e6a	0.11260684
144	0x3d94a572	0.07258119
145	0xbd72de00	-0.059293747
146	0xbdd7d96c	-0.10539517
147	0x3d233b54	0.0398515
148	0x3d688870	0.056770742
149	0xbb30de00	-0.002698779
150	0x3d392218	0.04519853
151	0x3d6fe244	0.058565393
152	0x3d9d6d18	0.076868236
153	0x3d82ae62	0.06380917
154	0xbda127da	-0.07868929
155	0x3c50d1e0	0.012745351
156	0xbd241a78	-0.040064305
157	0xbd83a0c2	-0.064271465
158	0xbdc834dc	-0.09775707
159	0x3dd2dd06	0.10296063
160	0xbc944d50	-0.018103272
161	0x3dea6126	0.11444311
162	0x3d893bd2	0.06700863
163	0x3d0277ec	0.031852648
164	0xbdc1d6be	-0.09464787
165	0x3ce850d0	0.028358847
166	0xbd0a18e0	-0.03371513
167	0x3dbef406	0.093238875
168	0xbdc75194	-0.09732357
169	0xbd1ca724	-0.038245335
170	0x3da1ce0a	0.07900627
171	0xbd40d6c8	-0.04707983
172	0x3dcdc5d2	0.10047497
173	0x3c3ead50	0.011638001
174	0xbdb879dc	-0.09007618
175	0xbdafe2dc	-0.08588192
176	0x3dd27d6a	0.10277827
177	0x3d9f0f86	0.07766633
178	0x3d12b858	0.035820335
179	0xbd2991e4	-0.041398898
180	0x3d76d8e4	0.060265437
181	0x3dafee4e	0.08590375
182	0xbce849e0	-0.028355539
183	0x3dd3a800	0.10334778
184	0x3cc2be80	0.023772478
185	0xbd2cf708	-0.042227775
186	0xbd968fe0	-0.07351661
187	0xbd3d862c	-0.046270534
188	0x3b8c0680	0.004273236
189	0xbdd95dae	-0.10613571
190	0x3d8e23b2	0.06940402
191	0xbd26aa30	-0.040689647
192	0xbc84c010	-0.016204864
193	0xbddd1910	-0.10795796
194	0xbd97c13a	-0.07409902
195	0x3dc1d89a	0.094651416
196	0xbcad4058	-0.021148846
197	0x3c7c8090	0.015411511
198	0xbde771f6	-0.11301033
199	0xb9a87600	-0.00032131374
200	0xbdce95f2	-0.100871935
201	0xbc8e40c8	-0.017364874
202	0x3b271a40	0.0025497824
203	0x3d900290	0.07031739
204	0xbddc604c	-0.10760555
205	0xbd3001f4	-0.042970613
206	0x3d6e70dc	0.0582131
207	0xbd8efe6a	-0.069821194
208	0x3deff304	0.117162734
209	0xbc3a15a0	-0.011357695
210	0xbdcf7da2	-0.101313844
211	0x3dde6546	0.1085916
212	0xbdec3fa6	-0.115355775
213	0x3db16fc8	0.08663899
214	0x3a623900	0.00086297095
215	0x3c6e1350	0.014530972
216	0xbd83946a	-0.06424792
217	0xbd8a2a72	-0.06746377
218	0x3de0a1bc	0.109683484
219	0xbdc6a5ee	-0.09699617
220	0x3d275b04	0.040858284
221	0xbd6a21e0	-0.057161212
222	0xbceed778	-0.029155478
223	0xbd531d78	-0.051541775
224	0x3db09884	0.0862284
225	0xbd4d9878	-0.050194234
226	0x3de7a462	0.113106504
227	0x3d86265a	0.06550284
228	0xbdf39976	-0.11894505
229	0xbcc15100	-0.023598194
230	0xbd4daaa0	-0.05021155
231	0xb9add400	-0.00033155084
232	0x3dbd2336	0.092352316
233	0x3d6c1984	0.05764152
234	0x3d3d7ed0	0.046263516
235	0x3dbcae06	0.0921288
236	0x3bbca5c0	0.0057570636
237	0xbdecad44	-0.11556485
238	0xbc502da0	-0.01270619
239	0xbc7a0090	-0.015258923
240	0x3dec9b02	0.11553003
241	0x3cd54cb0	0.026037544
242	0x3d82a540	0.06379175
243	0xbd446334	-0.04794617
244	0x3de51440	0.11185503
245	0x3df3ec0c	0.11910257
246	0x3d9c225a	0.076237395
247	0x3db4f186	0.088351294
248	0xbc080700	-0.00830245
249	0xbdb3add8	-0.087733924
250	0xbd622518	-0.055211157
251	0x3d0e7548	0.034779817
252	0xbdf3b182	-0.11899091
253	0x3df63fcc	0.12023887
254	0x3c746510	0.014916673
255	0xbdfecd5a	-0.124415115

bias f4 [64]
0	0xbdf1d92c	-0.118090004
1	0xbd7d7a8c	-0.061884448
2	0xbdb496d6	-0.08817832
3	0x3ddcb1b2	0.1077608
4	0x3da48338	0.080328405
5	0x3d87f8d4	0.06639257
6	0xbc8ffc38	-0.017576322
7	0xbbaa0d80	-0.0051895976
8	0xbba135a0	-0.0049197227
9	0x3b97bf60	0.004630968
10	0x3deaabd6	0.11458556
11	0x3cdb17a0	0.026744664
12	0x3dc0c06c	0.094117016
13	0x3ce5da50	0.028058201
14	0xbdb6edc6	-0.089320704
15	0x3cc407c8	0.023929492
16	0xbdcf0b2a	-0.10109551
17	0x3d1cb5ac	0.038259193
18	0xbc9e1ab8	-0.01929985
19	0x3cdb1c98	0.026747033
20	0x3ca01260	0.019540012
21	0x3bf03440	0.0073304474
22	0x3c6cf750	0.014463261
23	0x3cd16b00	0.025563717
24	0x3dd44b84	0.10365966
25	0x3dc390cc	0.09549102
26	0x3d7d2e68	0.061811835
27	0xbc987ed8	-0.018615171
28	0x3d1b1940	0.037865877
29	0x3de39860	0.111130476
30	0xbdf954ee	-0.12174402
31	0x3de3e00a	0.111267164
32	0x3df0bd34	0.11754838
33	0xb9511400	-0.00019939244
34	0xbc3fb230	-0.011700198
35	0x3d90d272	0.07071389
36	0xbd3c6f88	-0.046004802
37	0x3bc020a0	0.005863264
38	0x3d89bef2	0.06725873
39	0x3d1d730c	0.038439795
40	0xbdb71da2	-0.08941199
41	0x3d265efc	0.040617928
42	0xbc4ee040	-0.012626708
43	0x3de20c40	0.11037493
44	0xbd264538	-0.040593356
45	0xbce38e68	-0.027777866
46	0xbda3c962	-0.07997395
47	0x3dc5bd66	0.096552655
48	0x3d4b55c8	0.049642354
49	0x3c5e55d0	0.013570264
50	0x3d349b68	0.04409352
51	0x3d036f80	0.032088757
52	0x3d6e5e24	0.05819525
53	0xbde3b618	-0.11118716
54	0x3d94685a	0.07246466
55	0x3da66b18	0.08125895
56	0x3df5b8be	0.119981274
57	0x3dd44aa2	0.103657976
58	0xbd2b7c18	-0.041866392
59	0x3debd87c	0.115159005
60	0xbdfbe7c2	-0.12300064
61	0xbc3d3f20	-0.011550695
62	0x3a953500	0.0011383593
63	0x3d3468e4	0.044045344

weight f4 [64, 64]
0	0x3d0390cc	0.03212051
1	0xbdd9317a	-0.1060514
2	0xbd90d3e2	-0.070716634
3	0xbd00a440	-0.03140664
4	0xbd408224	-0.04699911
5	0xbda56284	-0.08075431
6	0xbd6a952c	-0.057271168
7	0xbd3a1630	-0.045431316
8	0xbc1186e0	-0.008882254
9	0xbdea04bc	-0.11426684
10	0x3dc7ac2e	0.097496375
11	0x3d33f0c4	0.043930784
12	0x3d4f2d7c	0.050580487
13	0x39a81000	0.00032055378
14	0xbdb69aa4	-0.08916214
15	0xbc6444c0	-0.013932407
16	0xbd714448	-0.05890301
17	0x3dc75ad2	0.097341195
18	0xbdd79922	-0.10527255
19	0xbd1df960	-0.0385679
20	0xbd63c5e0	-0.05560863
21	0xbd595a2c	-0.05306451
22	0x3db251b4	0.0870699
23	0x3dcfd4e0	0.101480246
24	0x3db429cc	0.087970346
25	0xbc89f868	-0.016842082
26	0xbd40c330	-0.047061145
27	0xbd7c9ea0	-0.061674714
28	0x3d1ee760	0.038794875
29	0xbdd646b0	-0.10462701
30	0xbd7ba1c8	-0.061433583
31	0xbd995e2a	-0.074886635
32	0xbd779578	-0.06044528
33	0xbd9dc68e	-0.07703887
34	0x3d146a00	0.036233902
35	0x3cf0f1e8	0.029412225
36	0x3cd53190	0.02602461
37	0xbdd27fae	-0.10278259
38	0xbc2b2190	-0.010445014
39	0xbd2b02e8	-0.04175082
40	0xbdfcd7d4	-0.123458534
41	0x3d3761a0	0.044770837
42	0xbda7056a	-0.081553295
43	0x3d8c9596	0.06864469
44	0xbd07ddb8	-0.03317043
45	0x3d337718	0.04381475
46	0xbd2854fc	-0.041096672
47	0xbdf88672	-0.121350184
48	0x3d4db7e4	0.0502242
49	0xbdf8ab18	-0.121420085
50	0xbbf36e20	-0.0074288994
51	0xbd9d7b8c	-0.0768958
52	0x3cc63ec8	0.024199858
53	0xbcc7c398	-0.024385259
54	0x3d9ce3b0	0.076606154
55	0x3b031b00	0.0020005107
56	0xbd576d8c	-0.052594706
57	0x3d3485b4	0.04407282
58	0x3de40ef0	0.111356616
59	0x3d1d1000	0.038345337
60	0x3df0c7fc	0.11756894
61	0xbd1f4e8c	-0.038893268
62	0x3d96b9a2	0.073596254
63	0xbdeaf09e	-0.11471675
64	0x3d9b7280	0.075901985
65	0x3c82b2b0	0.015954345
66	0xbdd21e4a	-0.102596834
67	0x3ca853b0	0.020547718
68	0x3c07c450	0.008286551
69	0xbdcc87c4	-0.09986833
70	0xbd4f8964	-0.050668135
71	0x3c827400	0.015924454
72	0xbca6d0b0	-0.020363182
73	0x3d1c6704	0.03818418
74	0x3dbff33e	0.09372567
75	0xbd9ecc40	-0.07753801
76	0xbd5fa6cc	-0.05460243
77	0xbd9de9d2	-0.07710613
78	0xbc691bf0	-0.014227852
79	0x3d2b9db4	0.041898444
80	0x3db970ea	0.0905474
81	0xbccf71b0	-0.025322765
82	0x3d121ae8	0.03567019
83	0xbdada9f6	-0.08479683
84	0xbde346fc	-0.110975236
85	0xbda81448	-0.08206993
86	0x3c41d7c0	0.011831224
87	0xbdd9ded8	-0.10638207
88	0x3acc9c80	0.0015610605
89	0x3d150fe4	0.036392108
90	0x3d9f7ff0	0.07788074
91	0x3d20081c	0.039070234
92	0xbdbb32d4	-0.09140554
93	0xbdcf5f8c	-0.10125646
94	0xbd2dbbfc	-0.042415604
95	0xbd839282	-0.064244285
96	0x3dbe0688	0.092785895
97	0xbc4b6070	-0.012413129
98	0xbd891faa	-0.066954926
99	0x3dc3e94e	0.09565984
100	0xbddae552	-0.10688271
101	0x3db701ba	0.08935876
102	0xbd96333c	-0.07333991
103	0xbdc80628	-0.09766799
104	0x3d662a30	0.056192577
105	0xbd11d48c	-0.03560309
106	0xbd897482	-0.06711675
107	0xbc843150	-0.016136795
108	0xbd25d094	-0.04048212
109	0x3cad6620	0.021166861
110	0xbb93ba40	-0.0045082867
111	0x3d9bf5f8	0.07615274
112	0x3d99e246	0.07513861
113	0x3d9cd556	0.07657878
114	0x3df5fdb2	0.12011279
115	0xbc681210	-0.014164463
116	0x3ca1f560	0.019770324
117	0x3cd7e100	0.026352406
118	0x3dc9dbb0	0.09856355
119	0x3de822ec	0.11334786
120	0xbd72857c	-0.059209332
121	0xbd9cec28	-0.07662231
122	0x3d87bc00	0.06627655
123	0xbcde3b90	-0.027128011
124	0x3db0af80	0.08627224
125	0xbda8a076	-0.082337305
126	0x3dc82c4c	0.09774074
127	0xbd2a487c	-0.041573033
128	0x3db0f60a	0.08640678
129	0xbde1b28c	-0.11020383
130	0x3cf94180	0.03042674
131	0x3d3f2884	0.046669498
132	0x3d9326d6	0.07185142
133	0x3d94e744	0.07270673
134	0x3cb44040	0.022003293
135	0xbdf3459e	-0.11878513
136	0x3d848804	0.064712554
137	0x3dbd67fc	0.09248349
138	0xbdbd86d0	-0.09254229
139	0xbda1f81c	-0.07908651
140	0x3c7fa030	0.0156021565
141	0xbdf96880	-0.12178135
142	0x3d5b0e04	0.053480163
143	0xbdf52f54	-0.11971918
144	0xbd87446a	-0.06604846
145	0x3cf51918	0.029919192
146	0x3d1dc3c4	0.038516775
147	0xbb30d140	-0.0026980191
148	0xbc95b3c0	-0.018274188
149	0xba71f600	-0.0009230077
150	0xbb2d4700	-0.0026440024
151	0x3d4060ec	0.046967432
152	0xbdd26d52	-0.102747574
153	0xbd8bd3f8	-0.06827539
154	0xbcc8cca0	-0.024511635
155	0xbc992848	-0.018695965
156	0xbdda0bfe	-0.106468186
157	0x3da2c988	0.07948595
158	0xbd5bfb38	-0.053706378
159	0xbdba46d6	-0.09095542
160	0xbc5a4d40	-0.013324082
161	0x3d8bdec0	0.068295956
162	0x3c6d6130	0.014488503
163	0xbd8ae7b0	-0.06782472
164	0x3debdbc8	0.11516529
165	0xbc9bfd70	-0.019041747
166	0xbdd2c050	-0.10290587
167	0x3cf6abd8	0.030111238
168	0x3dbf72ec	0.093480915
169	0xbc5fdce0	-0.013663501
170	0x3d1f66f4	0.038916543
171	0x3dc4416a	0.09582789
172	0xbd22d964	-0.0397581
173	0x3b9c15a0	0.00476332
174	0xbdf19016	-0.1179506
175	0x3ddaf554	0.10691324
176	0x3b9349c0	0.0044948757
177	0xbcb61188	-0.022225156
178	0x3d88f970	0.066882014
179	0xbdce55ca	-0.10074957
180	0xbd6bed14	-0.057599142
181	0xbd8a07e6	-0.06739788
182	0x3de9cfdc	0.11416599
183	0xbc85e250	-0.016343266
184	0x3df6a802	0.12043764
185	0xbdc7b59e	-0.097514376
186	0x3b581100	0.0032969117
187	0xbde77b50	-0.11302817
188	0x3c0431d0	0.008068517
189	0x3d326c7c	0.04356049
190	0x3df018e8	0.117235005
191	0xbd97fce8	-0.07421285
192	0x3df09df0	0.11748874
193	0xbddfc50c	-0.109262556
194	0xbde33066	-0.11093216
195	0x3d839800	0.06425476
196	0xbcdfe460	-0.027330577
197	0x3d960902	0.07325937
198	0xbd82c432	-0.063850775
199	0xbdc8415a	-0.0977809
200	0x3db3b766	0.08775215
201	0x3d4f2448	0.05057171
202	0xbda6d098	-0.08145255
203	0xbc173180	-0.00922811
204	0xbd478320	-0.048709035
205	0x3c84e088	0.016220346
206	0xbb6a2240	-0.003572598
207	0x3c60d0c0	0.013721645
208	0xbd9a1314	-0.0752317
209	0x3bc49540	0.0059992373
210	0xbda2455a	-0.07923384
211	0xbd2412fc	-0.040057167
212	0x3d58fb8c	0.05297427
213	0x3de0431a	0.109502986
214	0x3c77e730	0.015130803
215	0xbb029440	-0.001992479
216	0xbd4fee68	-0.05076447
217	0x3d9acf5c	0.07559082
218	0x3dc7ca60	0.09755397
219	0x3dde72a0	0.10861707
220	0x3d361638	0.044454783
221	0xbce41c30	-0.027845472
222	0x3cb067f0	0.021533936
223	0x3d8a291c	0.06746122
224	0x3daa6b56	0.08321254
225	0x3d892b72	0.0669774
226	0xbcf5d1a0	-0.030007184
227	0xbd93a92e	-0.07210003
228	0xbce79918	-0.028271243
229	0xbca94490	-0.020662576
230	0x3de6b22a	0.11264451
231	0x3dd4f170	0.10397613
232	0x3db01756	0.08598201
233	0xbd7e904c	-0.06214933
234	0x3c2f3700	0.010694265
235	0xbdd6ed52	-0.10494484
236	0x3d9c46ac	0.07630667
237	0xbddd51b4	-0.10806599
238	0xbde8dd7a	-0.11370368
239	0xbd726e5c	-0.05918728
240	0x3d8b2544	0.06794217
241	0xbd9a2e44	-0.07528356
242	0xbdec15c0	-0.11527586
243	0xbd8e1b78	-0.06938833
244	0x3d09e720	0.033667684
245	0xbd7b5294	-0.06135805
246	0xbd0ca52c	-0.034337208
247	0x3c7de940	0.015497506
248	0xbdcef58a	-0.101054266
249	0x3db0bf4e	0.086302385
250	0x3cdc25a0	0.02687341
251	0xbdd84494	-0.10559955
252	0xbc154360	-0.009110302
253	0x3caa9650	0.020823628
254	0xbbe5c2c0	-0.0070117414
255	0x3d34ea18	0.04416856

bias f4 [64]
0	0xbd99176e	-0.07475172
1	0xbdb2edc2	-0.08736755
2	0xbce21500	-0.027597904
3	0x3d3fc2c0	0.046816587
4	0x3bf28e00	0.0074021816
5	0x3dba97a6	0.09110956
6	0x3dd6a99e	0.10481571
7	0x3dcf3750	0.10117972
8	0xbd823176	-0.0635709
9	0xbdcb796c	-0.09935269
10	0x3db01354	0.085974365
11	0xbdf608d0	-0.120133996
12	0x3d1ee7ac	0.03879516
13	0x3d920110	0.07129109
14	0xbdcee7c0	-0.101027966
15	0xbd7471e0	-0.059678912
16	0x3dc4390c	0.09581193
17	0x3dfa41c8	0.12219578
18	0x3dfc0498	0.12305564
19	0xbdb8c538	-0.090219915
20	0xbdda8234	-0.106693655
21	0xbd71cc1c	-0.059032544
22	0xbb91fc40	-0.0044551194
23	0x3d030344	0.031985536
24	0x3d7525b0	0.059850395
25	0x3c9f3120	0.019432604
26	0x3d05fde4	0.032712832
27	0xbd7a8978	-0.061166257
28	0x3d429844	0.047508493
29	0xbda538a2	-0.080674425
30	0x3d9120de	0.07086347
31	0x3db11c64	0.08647993
32	0xbd49205c	-0.049103126
33	0x3dacc61a	0.084362224
34	0xbd253150	-0.04033023
35	0x3d17f9f0	0.037103593
36	0xbc7cad70	-0.01542221
37	0xbd0c5d6c	-0.03426878
38	0xbca83100	-0.020531178
39	0xbb1d2480	-0.0023978055
40	0xbcd7dbc0	-0.026349902
41	0x3da96088	0.08270365
42	0x3dbf502e	0.09341465
43	0xbda27310	-0.07932103
44	0xbdcfa500	-0.10138893
45	0x3c4f6570	0.012658462
46	0x3de4fa48	0.1118055
47	0x3d987672	0.07444467
48	0xbdbca10c	-0.09210405
49	0x3dfbd060	0.12295604
50	0xbcfbeb90	-0.030751973
51	0x3db24082	0.0870371
52	0x3d42032c	0.047366306
53	0x3c983310	0.018579036
54	0x3df4b5be	0.11948727
55	0xbbfa00e0	-0.007629499
56	0xbce21398	-0.027597234
57	0x3de8ea9a	0.11372872
58	0xbdfec2b2	-0.12439479
59	0xbdeb9852	-0.11503662
60	0x3deb5532	0.11490859
61	0xbde64ca4	-0.11245087
62	0x3dd5958c	0.104289144
63	0x3d4166a0	0.04721701

weight f4 [64, 64]
0	0x3dd2a590	0.10285485
1	0x3db881ac	0.09009108
2	0x3c6bba60	0.014387697
3	0x3db130ee	0.08651911
4	0xbdda2252	-0.10651077
5	0x3c95c828	0.018283918
6	0x3d9a09c0	0.07521391
7	0x3cbf2e48	0.023337498
8	0x3bd11820	0.0063810498
9	0xbd048f68	-0.032363325
10	0xbce0fc50	-0.027464062
11	0x3d3028c0	0.043007612
12	0xbd7bcfd0	-0.061477482
13	0xbd9ae208	-0.07562643
14	0x3da626b4	0.08112851
15	0xbdefa47c	-0.11701295
16	0xbdc2f652	-0.09519638
17	0xbdb54652	-0.08851303
18	0xbcc0b3c0	-0.023523211
19	0x3c7a67b0	0.01528351
20	0x3cecfcb0	0.028929085
21	0xbd9ad290	-0.07559693
22	0xbd5ae6f8	-0.053442925
23	0xbd6f5b6c	-0.058436796
24	0xbc5c38e0	-0.013441294
25	0xbd5bab44	-0.05363013
26	0x3d1f678c	0.03891711
27	0x3d68845c	0.056766853
28	0x3d378bf0	0.04481119
29	0x3c7b1ca0	0.015326649
30	0x3c863c60	0.01638621
31	0x3ddc60f0	0.10760677
32	0x3dd33aa4	0.10313919
33	0xbc846a20	-0.016163886
34	0xbd97fc3a	-0.07421155
35	0xbdf3de88	-0.11907679
36	0x3dc7ed58	0.097620666
37	0x3d9dd662	0.07706906
38	0x3d11cec4	0.035597578
39	0xbd3dd924	-0.04634966
40	0x3b2c5a80	0.002629906
41	0xbd8154dc	-0.06315014
42	0xbd95e640	-0.07319307
43	0xbca7b4c8	-0.020471945
44	0xbc8b63c0	-0.017015338
45	0xbc94f718	-0.01818423
46	0x3d90d6fa	0.070722535
47	0x3dc290ea	0.095002964
48	0xbcf533a8	-0.029931858
49	0x3c835950	0.016033798
50	0xbcbc5a90	-0.022992402
51	0x3de3368c	0.11094388
52	0x3db3525c	0.08755943
53	0x3c8e2658	0.017352268
54	0xbd4e920c	-0.05043225
55	0xbde7d69e	-0.11320232
56	0xbd78c684	-0.060736194
57	0xbd9a61b6	-0.07538168
58	0xbda534de	-0.08066724
59	0x3dc45e02	0.09588243
60	0x3da79c50	0.08184111
61	0x3d2c916c	0.042130873
62	0xbdbbb882	-0.091660514
63	0x3da65126	0.081209466
64	0xbdebdf92	-0.11517252
65	0xbc9f6608	-0.019457832
66	0x3b4a2400	0.0030844212
67	0xbcff5af0	-0.031171292
68	0xbd3fa004	-0.046783462
69	0xbd0eaf9c	-0.034835443
70	0xbdda0180	-0.10644817
71	0xbcd43a20	-0.025906622
72	0x3d49761c	0.049184904
73	0xbdd073d6	-0.10178344
74	0x3dfafb72	0.12254991
75	0xbd8c71da	-0.06857653
76	0x3dde97b0	0.10868776
77	0xbdf68ca0	-0.12038541
78	0x3d65b618	0.05608186
79	0x3b12c900	0.0022397637
80	0xbcb27d90	-0.021788388
81	0x3bb6dc00	0.0055804253
82	0x3dfa7c0c	0.12230691
83	0x3dd826b0	0.10554254
84	0xbdf14b8c	-0.117819875
85	0xbd9be50e	-0.07612048
86	0xbaa86880	-0.0012848526
87	0x3d9c886e	0.076432094
88	0x3c700690	0.014650002
89	0x3dca00d2	0.09863438
90	0xbd9e1dee	-0.077205524
91	0x3d424248	0.047426492
92	0x3d9dc72c	0.07704005
93	0xbd9c3e24	-0.0762904
94	0xbb94c460	-0.0045400113
95	0xbcc4add0	-0.024008662
96	0xbcb3aff0	-0.02193448
97	0xbd47d200	-0.048784256
98	0xbc92b1f0	-0.017907113
99	0x3b1e6300	0.0024167895
100	0xbd5e3cd8	-0.054257244
101	0xbd0b0e14	-0.033948973
102	0x3db6dd4e	0.08928929
103	0x3d0fb52c	0.03508489
104	0xbd148dbc	-0.03626798
105	0xbd35d840	-0.044395685
106	0x3d8a0c50	0.0674063
107	0xbd6ba8ac	-0.057533905
108	0x3c00ab50	0.007853344
109	0xbd66de3c	-0.056364283
110	0xbba9edc0	-0.0051858127
111	0x3dcbffd6	0.09960906
112	0x3d6f8fb8	0.05848667
113	0x3dd223cc	0.10260734
114	0xbdb0c8e2	-0.08632065
115	0x3d787c24	0.060665265
116	0x3a175000	0.0005772114
117	0x3de85044	0.113434345
118	0xbdee88e8	-0.116472065
119	0x3d602c7c	0.054729924
120	0xbddf279e	-0.10896228
121	0x3daf4cf4	0.085595995
122	0xbdc96b76	-0.0983495
123	0xbcf2d708	-0.02964355
124	0x3d94ceee	0.07266031
125	0xbd67ca38	-0.056589335
126	0x3d121e84	0.035673633
127	0x3dcca006	0.099914595
128	0x3b098fc0	0.0020990223
129	0xbdcf45aa	-0.10120709
130	0xbcc28fa8	-0.023750141
131	0xbcf8c5c0	-0.030367732
132	0xbcfc29c8	-0.030781642
133	0xbc99ccc0	-0.01877439
134	0xbcc6f8e8	-0.02428861
135	0xbda7ce8c	-0.081936926
136	0xbd49433c	-0.049136385
137	0x3d80b612	0.06284727
138	0x3ddf0b2c	0.10890803
139	0xbd7908bc	-0.060799345
140	0x3dafc4f6	0.08582489
141	0xbdbfb036	-0.093597814
142	0xbcb35a68	-0.021893695
143	0x3dbef358	0.09323758
144	0x3d7200a8	0.059082657
145	0x3dabee56	0.08395068
146	0xbdc060be	-0.09393452
147	0xbdae3c2c	-0.085075706
148	0xbd2b0ac0	-0.0417583
149	0xbd42d8e4	-0.047570124
150	0xbd9e9f88	-0.07745272
151	0x3c723a80	0.014784455
152	0xbb902e40	-0.0044000447
153	0xbd951faa	-0.0728143
154	0x3de67f24	0.11254719
155	0xbd0a19f4	-0.033716157
156	0x3dd0bbea	0.10192092
157	0xbd97d934	-0.07414475
158	0x3ddae7f0	0.1068877
159	0x3d2a0938	0.041512698
160	0x3dd94596	0.106089756
161	0xbde24e66	-0.110501096
162	0xbd0df464	-0.034656897
163	0xbd9941aa	-0.074832276
164	0x3d5a2540	0.05325818
165	0xbd98d816	-0.0746309
166	0x3d9f29de	0.077716574
167	0xbd74b0f8	-0.059739083
168	0xbd425818	-0.047447294
169	0x3d95a860	0.073075056
170	0xbdaef7e6	-0.085433766
171	0x3c8a1318	0.016854808
172	0x3c3a5030	0.011371657
173	0xbc8876e8	-0.016658261
174	0xbdf354dc	-0.1188142
175	0xbd8282bc	-0.06372592
176	0x3dae0832	0.08497657
177	0x3dc1557e	0.094401345
178	0xbdb63d5e	-0.088984236
179	0x3dbcdd46	0.09221892
180	0x3d89380e	0.06700145
181	0x3d3ef46c	0.046619818
182	0x3dc592a8	0.09647113
183	0xbc1c2e30	-0.009532496
184	0xbbbcd300	-0.005762458
185	0x3da44486	0.08020882
186	0xbd31922c	-0.04335229
187	0xbd97b4a6	-0.07407503
188	0xbcd1cfc0	-0.025611758
189	0x3d6f0f44	0.058364168
190	0xbb94d8a0	-0.0045424253
191	0xbcdd30d8	-0.02700083
192	0xbd43a794	-0.047767237
193	0x3d69cd80	0.057080746
194	0xbda3befc	-0.07995412
195	0xbdb35544	-0.087564975
196	0xbde596b6	-0.112103865
197	0xbdcb6b10	-0.0993253
198	0xbdd1a1cc	-0.102359384
199	0xbbeac8e0	-0.0071650594
200	0x3cd98278	0.02655147
201	0xbdddbfa4	-0.10827568
202	0x3cb42460	0.021990001
203	0x3dbbe048	0.09173638
204	0x3d092eac	0.033491775
205	0xbda50d16	-0.080591366
206	0x3c85c168	0.016327575
207	0x3d4dca3c	0.050241694
208	0x3db5c538	0.08875507
209	0xbd9735dc	-0.0738332
210	0x3d972954	0.073809296
211	0x3ba92540	0.0051619112
212	0xbdb88032	-0.09008826
213	0xbd52e8a8	-0.05149141
214	0xbdf1a87a	-0.117997125
215	0x3dbf0c1c	0.093284816
216	0xbde4dbf0	-0.11174762
217	0xbce7bd50	-0.028288513
218	0x3c1c32f0	0.009533629
219	0xbdfe5f2e	-0.12420498
220	0xbd5d399c	-0.05401002
221	0xbcd9acb8	-0.026571617
222	0xb9c94800	-0.00038391352
223	0xbdea37c4	-0.11436418
224	0x3cc6e558	0.024279281
225	0xbd039e48	-0.03213337
226	0x3da56d88	0.08077532
227	0x3cf7dbe8	0.030256227
228	0x3cf55cf0	0.029951543
229	0x3b76cb00	0.0037657619
230	0x3dd4fd74	0.10399905
231	0x3df7aa96	0.120930836
232	0x3cff7548	0.031183854
233	0xbc5f9560	-0.013646454
234	0x3cc81f10	0.024428874
235	0xbdeb86e2	-0.11500336
236	0xbd64bfc4	-0.055846944
237	0x3d169de8	0.036771685
238	0xbcd71288	-0.026253954
239	0xbda7357a	-0.08164497
240	0xbd852ac0	-0.065022945
241	0x3dc3e116	0.09564416
242	0x3d3ace04	0.045606628
243	0xbda4dd7a	-0.08050056
244	0x3dac8398	0.08423537
245	0xbd58ce18	-0.05293092
246	0xbd215710	-0.03938967
247	0xbdd34708	-0.103162825
248	0xbd8e70a6	-0.0695508
249	0x3d1d9d0c	0.03847985
250	0xbdbc6938	-0.091997564
251	0x3de1298c	0.109942526
252	0xbce49020	-0.027900755
253	0x3dad7542	0.08469631
254	0x3c924d40	0.017859101
255	0x3d28a9d0	0.04117757

bias f4 [64]
0	0xbdf9b6bc	-0.12193057
1	0x3ddbd596	0.10734098
2	0xbc97ec30	-0.01854524
3	0xbdfcc6b8	-0.1234259
4	0x3d7f25c4	0.062291875
5	0xbdc0c9ac	-0.09413466
6	0xbd6152c8	-0.055010587
7	0xbdbee532	-0.09321059
8	0xbddc884c	-0.10768184
9	0xbcbffc58	-0.023435757
10	0xbd97fdf0	-0.074214816
11	0xbd938022	-0.07202174
12	0x3d85adc2	0.06527282
13	0xbd353ab8	-0.04424545
14	0xbdf5f13c	-0.120089024
15	0xbdfd68da	-0.123735145
16	0xbd232a68	-0.039835364
17	0x3cada438	0.02119647
18	0x3de950ca	0.113923624
19	0x3db8a050	0.09014952
20	0x3dff8bbe	0.124778256
21	0x3dba3c84	0.09093574
22	0x3d7d4868	0.06183663
23	0x3d9c0a0e	0.07619105
24	0x3d95a932	0.07307662
25	0x3d286390	0.041110575
26	0xbdc1092e	-0.09425579
27	0x3d178180	0.036988735
28	0x3cc0f948	0.023556367
29	0x3c961ae0	0.018323362
30	0x3dbc54c2	0.09195854
31	0xbc8bd5e8	-0.017069772
32	0xbddf0aec	-0.10890755
33	0xbd03d8a0	-0.03218901
34	0xbd47d6c4	-0.0487888
35	0x3ddf0b14	0.10890785
36	0xbc9e8800	-0.01935196
37	0x3d21c4e0	0.039494395
38	0xbdf1d932	-0.11809005
39	0x3d84f310	0.06491673
40	0xbd8fd7c8	-0.07023579
41	0xbdf0a5a4	-0.117503434
42	0xbbc2dc40	-0.005946666
43	0xbdf36930	-0.11885297
44	0x3dba7fa0	0.09106374
45	0xbd93b48e	-0.072121724
46	0x3c95f198	0.018303677
47	0xbdec9d4c	-0.115534395
48	0xbcba4390	-0.022737294
49	0x3d012ff4	0.031539872
50	0xbd034ff4	-0.03205867
51	0xbd140a60	-0.036142707
52	0x3d50df40	0.050994158
53	0x3d6dd66c	0.058065817
54	0x3df96b7e	0.12178706
55	0x3d25c26c	0.04046862
56	0xbda81b48	-0.082083285
57	0xbdf3d5ba	-0.119059995
58	0x3ca932a0	0.020654023
59	0xbbc79be0	-0.00609158
60	0xbda1aac4	-0.07893899
61	0xbcf71f30	-0.030166239
62	0x3c43d4a0	0.011952549
63	0xbdd70520	-0.104990244

weight f4 [64, 64]
0	0x3dbbca80	0.09169483
1	0x3d52ddbc	0.051480994
2	0xbd4724bc	-0.048619017
3	0xbdb1778c	-0.0866538
4	0xbd541f6c	-0.05178778
5	0x3de7a712	0.11311163
6	0xbd608d84	-0.05482246
7	0xbce25ba8	-0.027631596
8	0xbbe445c0	-0.0069663227
9	0x3d6a7024	0.057235852
10	0xbad6ba80	-0.0016382486
11	0x3d5f0e58	0.05445704
12	0x3deac8b8	0.11464065
13	0xbc65c640	-0.014024317
14	0xbdc8f5de	-0.098125204
15	0x3dc22c12	0.09481062
16	0x3d2957a8	0.04134336
17	0x3c794410	0.015213981
18	0xbdfc919c	-0.1233246
19	0xbd195240	-0.037431955
20	0xbc725e80	-0.014793038
21	0xbd102f58	-0.0352014
22	0x3dfb1c02	0.122612014
23	0xbdcff2f0	-0.101537585
24	0x3c0b62c0	0.008507431
25	0x3ba5bb00	0.0050576925
26	0xbba97e00	-0.005172491
27	0xbdf73074	-0.120697886
28	0x3ddf93fa	0.10916896
29	0xbdcba050	-0.099426866
30	0x3df16234	0.11786309
31	0x3dce5fdc	0.100768775
32	0xbd11dd9c	-0.035611734
33	0xbdd1240c	-0.102119535
34	0xbbb01220	-0.0053732544
35	0x3d0b6a20	0.034036756
36	0xbd0a4924	-0.03376116
37	0x3ca52288	0.020158067
38	0x3da03f38	0.07824558
39	0xbdcff9c6	-0.101550624
40	0x3d9eaa04	0.07747272
41	0x3d68e6e8	0.056860834
42	0xbd5011b8	-0.050798148
43	0xbc9826c0	-0.018573165
44	0xbd556a30	-0.05210322
45	0x3bac3e20	0.0052564293
46	0x3d9e7cf4	0.07738677
47	0x3d85f890	0.0654155
48	0xbc5ffbd0	-0.013670877
49	0xbd84f408	-0.06491858
50	0x3cb6dfe8	0.022323564
51	0xbddd1c36	-0.107963964
52	0x3dc34e1e	0.09536384
53	0xbd4f0aa4	-0.050547257
54	0x3dc6b50c	0.09702501
55	0xbd071984	-0.032983318
56	0x3d8f131e	0.06986068
57	0xbd4e2e6c	-0.05033724
58	0xbd0bf604	-0.034170166
59	0xbdabf704	-0.08396724
60	0xbd2222d8	-0.03958401
61	0x3c9a7a50	0.018857151
62	0xbdaf9a90	-0.08574402
63	0x3d3b979c	0.045798883
64	0x3c86a988	0.01643826
65	0x3ca93ee8	0.020659879
66	0x3b6a5680	0.0035757124
67	0x3d5c06b8	0.053717345
68	0xbc38d470	-0.011281118
69	0xbd1b3570	-0.03789276
70	0xbd97d3be	-0.074134335
71	0xbc422c20	-0.0118513405
72	0xbd8368f0	-0.064164996
73	0xbd2e65dc	-0.04257761
74	0x3da65266	0.08121185
75	0xbdfd5118	-0.12368983
76	0x3b82a340	0.003986746
77	0x3da864ee	0.08222376
78	0x3d2912e4	0.04127778
79	0x3d3462c4	0.044039503
80	0xbdcdf40c	-0.10056314
81	0x3d62842c	0.05530183
82	0x3db85d84	0.09002212
83	0x3d062850	0.03275329
84	0xbd89d550	-0.06730139
85	0x3dcf87c4	0.10133317
86	0xbd5778f8	-0.0526056
87	0xbdd48ff6	-0.10379021
88	0x3d9fe95c	0.07808182
89	0x3c772e10	0.015086666
90	0xbd5d97f8	-0.054100007
91	0x3dc9e6c6	0.0985847
92	0xbbfa96c0	-0.0076473653
93	0xbdbd27ba	-0.09236093
94	0xbdba833e	-0.09107064
95	0x3de4d864	0.11174086
96	0x3d754328	0.0598785
97	0xbdccc55e	-0.09998582
98	0xbd073a28	-0.033014446
99	0x3dc366e0	0.09541106
100	0xbce28350	-0.027650505
101	0x3d410c40	0.047130823
102	0x3de418a8	0.11137515
103	0xbd98c396	-0.0745918
104	0x3dc292e0	0.095006704
105	0x3d8daff4	0.06918326
106	0x3dd30e02	0.10305406
107	0xbc036f60	-0.008022159
108	0x3c164860	0.009172529
109	0xbd66357c	-0.05620335
110	0x3d4e6158	0.050385803
111	0xbc6b1000	-0.014347076
112	0x3d3bd2c0	0.045855284
113	0x3d9b2554	0.07575479
114	0xbda5e084	-0.080994636
115	0x3d8e1280	0.06937122
116	0xbd9d78c2	-0.07689048
117	0xbd4a9df8	-0.049467057
118	0x3d9428d8	0.07234353
119	0x3deb4e32	0.11489524
120	0x3d270918	0.040780157
121	0xbbdcfac0	-0.006743759
122	0x3d800348	0.06250626
123	0xbc7a9630	-0.015294597
124	0x3dedf236	0.11618464
125	0xbcdd9678	-0.027049288
126	0x3cd42c48	0.025900021
127	0x3cf3db38	0.029767618
128	0x3d9fc3da	0.078010276
129	0x3d588e5c	0.05287014
130	0xbd126230	-0.03573817
131	0xbdc11904	-0.094285995
132	0x3d382c38	0.044964045
133	0xbdd6b568	-0.10483819
134	0xbd86c9cc	-0.065814584
135	0xbd56ef18	-0.05247411
136	0x3d94f760	0.072737455
137	0xbb502680	-0.003176123
138	0x3de89716	0.11356942
139	0x3dd898f8	0.105760515
140	0x3d13edfc	0.03611563
141	0x3dc60e06	0.096706435
142	0x3d2bd19c	0.041947946
143	0x3d016d5c	0.031598434
144	0x3d2fde94	0.042936876
145	0xbd982b10	-0.074300885
146	0x3d802c48	0.06258446
147	0x3d6b76a4	0.05748619
148	0x3cc97580	0.024592161
149	0xbb95e7a0	-0.004574731
150	0x3d3be904	0.045876518
151	0x3a1fa100	0.00060893595
152	0xbbe5f820	-0.007018104
153	0x3cb55d98	0.022139356
154	0x3cec8e80	0.028876543
155	0xbd76a134	-0.06021233
156	0x3dc1c0d8	0.0946061
157	0x3d86f940	0.065905094
158	0xbdf38c72	-0.11892022
159	0x3dd82364	0.10553625
160	0xbd6bebcc	-0.05759792
161	0x3db04392	0.08606638
162	0x3dce9e7a	0.10088821
163	0xbd1f66e4	-0.038916484
164	0xbdf6239e	-0.12018512
165	0xbdeee678	-0.11665052
166	0x3bd2fe20	0.0064389855
167	0xbd6e952c	-0.05824773
168	0xbc3f2b20	-0.011667997
169	0xbd580ebc	-0.052748427
170	0x3da53022	0.08065821
171	0xbde4b820	-0.111679316
172	0xbd303100	-0.04301548
173	0xbcf6bfb0	-0.0301207
174	0xbc399cf0	-0.011328921
175	0x3d2bb9d0	0.04192525
176	0xbb1d0340	-0.0023958236
177	0xbde0cbf0	-0.10976398
178	0x3d2a2dd8	0.041547626
179	0x3cede588	0.029040113
180	0x3c5a9cd0	0.013343051
181	0xbd5efc30	-0.054439723
182	0xbdca2776	-0.09870808
183	0xbd667290	-0.0562616
184	0x3df54f82	0.119780555
185	0xbc80d9f0	-0.01572892
186	0xbde1b3e8	-0.110206425
187	0x3c411240	0.011784136
188	0xbda0dcb8	-0.07854599
189	0xbdc49bcc	-0.096000284
190	0xbd8b396a	-0.0679806
191	0xbcf1e200	-0.02952671
192	0x3b806d40	0.0039192736
193	0xbd367b28	-0.044551045
194	0xbdc6a59e	-0.09699558
195	0xbb671d40	-0.0035265237
196	0xbd78b2e4	-0.06071748
197	0xbd99d8a8	-0.07512027
198	0xbdb48a36	-0.08815424
199	0xbdfccb5e	-0.12343477
200	0x3c056920	0.00814274
201	0x3d46fea8	0.048582703
202	0xbdc80c04	-0.09767917
203	0x3d59ecd0	0.053204358
204	0x3dbf13ba	0.093299344
205	0x3daf57da	0.08561678
206	0xbd024504	-0.0318041
207	0x3cf86068	0.030319408
208	0xbd9076d4	-0.07053915
209	0xbdfd1f92	-0.12359537
210	0x3dc8c320	0.09802842
211	0xbdad2a96	-0.08455388
212	0xbd9afee6	-0.07568149
213	0x3dc087f4	0.09400931
214	0x3cbd4058	0.02310197
215	0xbdfeabc8	-0.124351084
216	0xbd115ae4	-0.03548707
217	0xbde84228	-0.11340743
218	0xbd1d6c30	-0.038433254
219	0xbc89ae60	-0.016806781
220	0xbcd3fd10	-0.025877506
221	0x3c101d30	0.008796021
222	0xbd840858	-0.06446904
223	0xbd91af60	-0.07113528
224	0xbc73dab0	-0.014883682
225	0x3dfd69c6	0.1237369
226	0x3d53d6f4	0.051718667
227	0x3da447ea	0.08021529
228	0xbd743d8c	-0.05962901
229	0xbd0aac14	-0.033855513
230	0x3c435140	0.011921227
231	0xbdd6d640	-0.10490084
232	0xbd2b1710	-0.04177004
233	0xbdd3ac40	-0.103355885
234	0x3d9b5a3e	0.07585572
235	0xbcce6fc0	-0.02519977
236	0xbd8d8b66	-0.06911354
237	0x3ddd9b36	0.1082062
238	0x3d75d300	0.06001568
239	0xbde02844	-0.1094518
240	0x3ba4d1e0	0.005029902
241	0xbdf2c10c	-0.11853227
242	0xbd129094	-0.03578241
243	0x3d1594b0	0.036518753
244	0x3cad96a8	0.021190003
245	0xbd6c4634	-0.05768414
246	0x3d43da1c	0.047815427
247	0x3ddb56c4	0.107099086
248	0xbded389a	-0.115830615
249	0x3d5985d8	0.05310616
250	0x3be744c0	0.007057756
251	0x3d2734ec	0.040821955
252	0xbd4f5240	-0.05061555
253	0x3d3527fc	0.044227585
254	0xbde4250c	-0.11139879
255	0x3de9b3e2	0.11411263

bias f4 [64]
0	0xbd8ee2ea	-0.06976874
1	0xbc0954a0	-0.008381993
2	0xbd80bc6a	-0.06285937
3	0x3d6cb010	0.057785094
4	0x3dbdc944	0.09266904
5	0x3dbab1b8	0.091159284
6	0xbd9e7a8a	-0.07738216
7	0xbd037e88	-0.03210309
8	0xbd7a8fe0	-0.061172366
9	0x3dcffc6a	0.10155566
10	0xbde64af8	-0.11244768
11	0x3da46246	0.08026557
12	0x3d1d2d14	0.038373068
13	0x3d5541a0	0.052064538
14	0xbdde6b40	-0.108603
15	0x3c232340	0.009957135
16	0xbd982dbc	-0.07430598
17	0x3df397bc	0.118941754
18	0xbd8cdf08	-0.06878477
19	0x3d0d2938	0.034463137
20	0xbcdb0450	-0.026735455
21	0x3ad61a00	0.0016334653
22	0xbc074710	-0.008256689
23	0x3d8bca5a	0.06825705
24	0x3da620ca	0.08111723
25	0xbd085928	-0.03328815
26	0xbd409cc4	-0.047024503
27	0xb9444400	-0.00018717349
28	0x3d9ec374	0.077521235
29	0x3b8167a0	0.0039491206
30	0xbdbae430	-0.091255546
31	0xbcf52f90	-0.029929906
32	0xbdda90ee	-0.106721744
33	0x3d0c4758	0.034247726
34	0x3dd14e16	0.10219972
35	0xbd1ed1dc	-0.038774356
36	0xbd157a44	-0.036493555
37	0x3de1c434	0.11023751
38	0x3d6c7e78	0.057737797
39	0x3d5cc858	0.053902
40	0x39fc6000	0.0004813671
41	0xbdec135c	-0.1152713
42	0xbdc2b2ae	-0.09506737
43	0x3dbccada	0.09218378
44	0xbdb398ae	-0.08769356
45	0xbde62e46	-0.11239295
46	0xbd649fc0	-0.055816412
47	0xbd000778	-0.031257123
48	0xbd5ba6ac	-0.053625748
49	0x3dc8e06c	0.0980843
50	0x3df82440	0.12116289
51	0x3d8950a4	0.06704834
52	0x3d725b78	0.059169263
53	0x3ce04ea8	0.027381256
54	0x3df574ba	0.119851544
55	0xbc3f3940	-0.011671364
56	0xbd8b0aba	-0.06789155
57	0x3dcecdbe	0.10097836
58	0x3c907d50	0.017637879
59	0x3da01334	0.07816163
60	0xbd219edc	-0.03945814
61	0xbdd03b68	-0.10167581
62	0x3dd02e8e	0.101651296
63	0x3d324450	0.04352218

weight f4 [64, 64]
0	0x3d8b8f92	0.06814493
1	0xbd422ee8	-0.047408015
2	0x3de1fb00	0.110342026
3	0x3d61e550	0.05515033
4	0xbdb9dd6e	-0.090754375
5	0xbd421cac	-0.047390625
6	0x3dde50d2	0.10855259
7	0xbcb38a30	-0.021916479
8	0xbdd04ef2	-0.101713076
9	0x3dc43176	0.095797464
10	0x3da9ab9c	0.08284685
11	0xbdfabce2	-0.12243058
12	0x3d65bfe4	0.056091204
13	0xbdc9c410	-0.09851849
14	0xbbbbf900	-0.00573647
15	0xbdc07e14	-0.093990475
16	0x3d9841a6	0.074343964
17	0xbdf7f588	-0.12107378
18	0xbcefacb0	-0.029257149
19	0x3da960ae	0.08270393
20	0xbda714fa	-0.08158298
21	0x3d8d727a	0.069066
22	0x3c005860	0.00783357
23	0xbce33880	-0.027736902
24	0xbc60d210	-0.013721958
25	0x3d314794	0.043281153
26	0xbb9bade0	-0.004750952
27	0xbda4997a	-0.08037086
28	0xbd08e338	-0.033419818
29	0xbbab7be0	-0.005233273
30	0xbd6b8ff8	-0.057510346
31	0xbda6a556	-0.08137004
32	0x3de6a580	0.11262035
33	0x3d770558	0.06030783
34	0xbdd7fa9e	-0.10545848
35	0x3da244b4	0.0792326
36	0xbda6afd8	-0.08139008
37	0xbd99c560	-0.075083494
38	0x3dd18328	0.10230094
39	0x3dd6180a	0.10453804
40	0x3d12967c	0.035788044
41	0x3caea328	0.021318033
42	0xbd7ee4b8	-0.062229842
43	0xbdea513c	-0.114412755
44	0xbdd1f368	-0.10251504
45	0x3c387c60	0.011260122
46	0x3dbb1072	0.09133996
47	0x3d82cf86	0.06387238
48	0x3d72b3c4	0.05925347
49	0xbb279700	-0.002557218
50	0xbd2eeb48	-0.04270485
51	0xbda5ffbe	-0.081054196
52	0x3d89e0f2	0.06732358
53	0x3d80899c	0.06276247
54	0x3cd32830	0.025775999
55	0x3de3bbc0	0.11119795
56	0x3d9d1e92	0.076718464
57	0x3d7af880	0.061272144
58	0xbdf1ab8e	-0.118002996
59	0xbd5853d8	-0.052814335
60	0xbc960b50	-0.018315941
61	0x3d17bee0	0.037047267
62	0x3de6e82c	0.11274752
63	0x3d878024	0.06616238
64	0xbdb1adfa	-0.086757615
65	0x3d99d608	0.07511526
66	0x3d617b08	0.055048972
67	0x3dd218e8	0.10258657
68	0x3dd84dbc	0.10561702
69	0xbdbbf13a	-0.0917687
70	0x3dbc4bba	0.09194131
71	0x3d94ee08	0.07271963
72	0x3ce6c520	0.028170168
73	0x3c98cfb8	0.018653736
74	0xbda1e302	-0.079046264
75	0x3c293070	0.01032649
76	0xbdd44e3a	-0.10366483
77	0xbdf441ca	-0.11926611
78	0x3d7a2134	0.06106682
79	0x3c713960	0.014723152
80	0xbd9f388a	-0.07774456
81	0xbddf2cb0	-0.10897195
82	0xbdb33e06	-0.087520644
83	0xbc9ecf50	-0.019385964
84	0x3d803496	0.0626003
85	0x3d6b9e48	0.057523996
86	0xbcaff588	-0.021479383
87	0x3d1d8f08	0.038466483
88	0xbd313d8c	-0.043271586
89	0x3d84400e	0.0645753
90	0xbda6b6bc	-0.081403226
91	0xbd0563c8	-0.032565862
92	0x3a0d6a00	0.00053945184
93	0x3829b000	4.0456653e-05
94	0xbdcff950	-0.101549745
95	0xbd442e50	-0.04789573
96	0x3ccebed0	0.02523747
97	0x3c1a3220	0.009411365
98	0x3dd873ce	0.10568963
99	0x3d0145a8	0.03156057
100	0xbc068cb0	-0.008212253
101	0x3d8d28bc	0.06892535
102	0xbd723c5c	-0.059139594
103	0xbca4ebf0	-0.020132035
104	0x3d4d1620	0.05006993
105	0xbd85dd06	-0.065362975
106	0xbcbfcc98	-0.023412988
107	0x3de50fb6	0.11184637
108	0x3d1a0a34	0.037607387
109	0x3c61dfb0	0.013786241
110	0x3d00dcac	0.03146045
111	0xbd9407a8	-0.07228023
112	0xbd32bd18	-0.043637365
113	0xbd69948c	-0.05702643
114	0xbd5efa74	-0.05443807
115	0xbd886fe8	-0.066619694
116	0xbdae33a2	-0.08505942
117	0x3dedf954	0.11619821
118	0x3df1f4f4	0.11814299
119	0x3db2d25a	0.087315276
120	0xbde70734	-0.11280671
121	0xbde465e4	-0.111522466
122	0x3de8d90e	0.11369525
123	0xbdcb71fe	-0.09933852
124	0x3c91b608	0.017786995
125	0xbcc21d08	-0.023695484
126	0x3bceb600	0.006308317
127	0x3dfcaad0	0.123372674
128	0x3ce10b18	0.02747111
129	0x3ddc1fb0	0.107482314
130	0x3d94748e	0.072487935
131	0x3d971220	0.07376504
132	0x3d80102e	0.06253086
133	0x3d974a5c	0.0738723
134	0xbd700ff4	-0.058608964
135	0xbd72dcf8	-0.059292763
136	0x3ddac042	0.106812015
137	0x3cf04cd8	0.029333517
138	0xbdafb4fc	-0.08579442
139	0xbc291ba0	-0.010321528
140	0xbcf56708	-0.029956356
141	0x3d87e45c	0.06635353
142	0x3ced4bb8	0.02896677
143	0xbbf5d860	-0.0075026006
144	0x3da09d14	0.0784246
145	0xbd71e1dc	-0.059053287
146	0x3dc212c4	0.094762355
147	0xbd479f18	-0.048735708
148	0xbcffc988	-0.031224027
149	0xbdd2b2e0	-0.10288024
150	0x3d38a528	0.04507938
151	0xbdb88f7e	-0.09011744
152	0xbc64ff10	-0.013976827
153	0xbcd64dc0	-0.026160121
154	0x3dcabcf0	0.09899318
155	0x3ce09960	0.027416885
156	0xbd55f5d0	-0.05223638
157	0xbd16a9d4	-0.036783054
158	0xbdaeb4f2	-0.08530606
159	0x3dd4cc2e	0.10390507
160	0xbccd74b8	-0.02508007
161	0x3d3783f0	0.04480356
162	0xbdb0c6c8	-0.086316645
163	0x3dd60b0a	0.10451324
164	0x3defd0ea	0.11709769
165	0x3ce373f0	0.027765244
166	0xbdacf504	-0.084451705
167	0xbc89d698	-0.01682596
168	0xbd9084c8	-0.07056576
169	0xbdb24f40	-0.08706522
170	0x3c9fb7f8	0.019496903
171	0xbc655270	-0.013996705
172	0x3da499ba	0.080371335
173	0xbd87f184	-0.06637862
174	0x3deae19a	0.11468811
175	0xbb99d1c0	-0.0046941936
176	0xbd86dc2e	-0.06584965
177	0x3df46f98	0.11935347
178	0xbc9c1020	-0.019050658
179	0xbdef5068	-0.11685258
180	0xbdb7f6a8	-0.08982593
181	0x3dfb78ea	0.12278922
182	0xbd550f2c	-0.052016422
183	0xbde533ee	-0.111915454
184	0xbd8d5280	-0.06900501
185	0x3d1cc6a8	0.03827539
186	0x3d53cd64	0.051709548
187	0x3da8ca74	0.0824174
188	0x3d2af95c	0.041741714
189	0xbd579ec8	-0.05264166
190	0x3b85ae20	0.004079595
191	0xbdfa38ea	-0.12217887
192	0xbd8acf9c	-0.067778796
193	0x3d4bbb20	0.049739003
194	0x3c4498f0	0.011999354
195	0xbcdb42b8	-0.026765212
196	0x3da16762	0.07881047
197	0x3d9c4a36	0.07631342
198	0xbc3191b0	-0.010837957
199	0x3d794804	0.060859695
200	0xbde7f2c2	-0.11325599
201	0xbd955f78	-0.072936
202	0x3d824e04	0.063625365
203	0xbd58514c	-0.052811906
204	0x3bb0b360	0.005392477
205	0x3c122bb0	0.008921549
206	0x3d8d80c6	0.06909327
207	0x3cac8878	0.021061167
208	0x3dc48918	0.09596461
209	0x3df2de52	0.118588105
210	0x3cbfd670	0.023417681
211	0x3d875620	0.06608224
212	0xbc445ad0	-0.011984542
213	0x3c017c40	0.007903159
214	0x3c985388	0.018594518
215	0x3d2674dc	0.04063879
216	0xbd319fec	-0.043365404
217	0x3dcd199a	0.10014649
218	0xba0e4b00	-0.0005428046
219	0xbd9b0220	-0.07568765
220	0xbdf92ae4	-0.12166384
221	0x3be10080	0.0068665147
222	0x3ddced96	0.107875034
223	0x3d92a05a	0.07159491
224	0xbd3f0880	-0.046638966
225	0xbdac31c8	-0.084079325
226	0xbc204be0	-0.009783715
227	0xbdb1c82e	-0.08680759
228	0xbd5b23c4	-0.053500906
229	0x3dad0d10	0.08449757
230	0xbd997f08	-0.074949324
231	0x3d006050	0.03134185
232	0xbdc5f2d2	-0.09665455
233	0x3dcdaccc	0.10042724
234	0x3dfcc854	0.12342897
235	0x3d59891c	0.053109273
236	0xbd311ad0	-0.04323846
237	0x3c360550	0.011109665
238	0x3d376f00	0.044783592
239	0x3b2ce300	0.002638042
240	0x3cf7a498	0.030229852
241	0xbde55462	-0.11197735
242	0x3b2b3780	0.002612561
243	0xbd8d1338	-0.06888431
244	0xbd3a6028	-0.045501858
245	0x3c1638a0	0.009168774
246	0x3dc3668c	0.09541044
247	0xbdabc044	-0.08386281
248	0x3d557b58	0.052119583
249	0x3be7fa20	0.007079378
250	0x3d6688dc	0.056282863
251	0x3ccfed48	0.0253817
252	0xbc06ff70	-0.008239612
253	0x3daf52e4	0.08560732
254	0x3c6480f0	0.013946757
255	0xbdf8218a	-0.12115772
