simplecnn_model0.05.pt (torch_old, 9887 bytes, 2 tensors)

weight f4 [1, 1, 3, 3]
000000 39 c3 f6 3d 2d 0c 00 3c 6e f7 e9 3d a0 42 9a 3d
       0.120489545 0.007815403 0.114241466 0.07532239
000010 aa 17 c8 bd 7b b9 42 bb 91 06 27 bd 80 d4 ad bd
       -0.097701386 -0.0029712606 -0.040777747 -0.08487797
000020 88 12 ed bc
       -0.0289395

weight f4 [1, 36]
000000 fb 5b 26 3e 61 3e 59 bd 4b 0b 3f bc 47 55 01 bd
       0.16246025 -0.053038005 -0.011660407 -0.031575467
000010 36 0e ac bd 75 e2 89 3e 44 45 68 3d 7a ee a6 3c
       -0.08401148 0.26930586 0.05670668 0.020377386
000020 05 6a 0d 3d 59 ac 61 3c b2 66 8b 3c 47 32 1e 3d
       0.034524936 0.013774001 0.017016742 0.038622167
000030 3f 87 9b bd 4d 82 c3 3c 1c e7 d7 bc 90 e8 f0 bd
       -0.075941555 0.023865843 -0.026355319 -0.11763108
000040 23 88 b8 3d 63 ab 88 3d 8b df 81 3c 3a 48 2f 3c
       0.09010341 0.066733144 0.015853664 0.0106983725
000050 54 db fe 3d 76 bc 30 bc 26 82 ac 3c f5 84 13 3a
       0.12444177 -0.01078712 0.021058153 0.0005627417
000060 15 4c 43 3b e6 c6 43 3c f3 5f 8c 3c f2 20 70 3d
       0.0029799987 0.011949277 0.017135596 0.05862517
000070 f9 7f 97 3d e5 35 db 3d 80 8b 90 3d be c4 be 3d
       0.07397456 0.10703639 0.070578575 0.09314869
000080 55 aa 63 3d b7 1c 53 3d 2a 86 a0 bd 96 46 4b 3e
       0.055582363 0.051541056 -0.0783809 0.19851145
