cnn_models/bnet_model0.05.pt (torch_old, 20369 bytes, 3 tensors)

weight f4 [64, 64]
000000 4c a3 2d bd b4 e2 86 bd 1c 4d dd bd 2c 19 8c bd
       -0.04239206 -0.06586209 -0.10805723 -0.06840739
000010 e8 16 1c 3d 84 78 94 bd 00 24 79 3b b0 63 0f bd
       0.038107783 -0.07249549 0.0038015842 -0.03500718
000020 80 48 ea bb 8a d2 81 3d 98 65 38 bd d8 d1 bd bc
       -0.007149756 0.06338985 -0.045018762 -0.02317135
000030 96 c4 ec 3d e0 7e 87 3b e0 4b 22 3c 40 29 ff 3c
       0.11560933 0.0041349977 0.009905785 0.0311476
000040 06 c4 c3 bd 74 38 0a 3d a0 23 6b 3c 78 26 ee 3c
       -0.09558873 0.033745244 0.014351755 0.029071078
000050 9e 6e bf 3d 08 6a 37 3d 3c 64 8f bd c0 6a 4d 3d
       0.093472704 0.044778854 -0.0700154 0.050150633
000060 d8 8c e8 bc 38 cb 8f 3d 34 e9 da 3d ec cb b7 3d
       -0.028387472 0.07021183 0.10689011 0.08974442
000070 28 0a e5 3c 42 1b b1 bd fc a9 5f bd 5a c9 9e bd
       0.027958944 -0.08647777 -0.05460547 -0.077532485
000080 2c 4f c8 bd ae 40 98 3d 30 f5 9d 3c 52 76 ad bd
       -0.09780726 0.07434212 0.019281954 -0.084698334
000090 30 bb de bc a8 26 a9 3d a0 24 27 3d 2e c1 c3 bd
       -0.027188867 0.08259326 0.040806413 -0.095583305
0000a0 26 f7 85 3d d8 cc 91 bd 98 8c 67 bd da 15 b0 3d
       0.065412804 -0.07119149 -0.056530565 0.08597918
0000b0 b8 52 c3 3c 68 ca 52 bd c6 91 d5 3d dc 22 b9 bd
       0.023843154 -0.05146256 0.10428195 -0.09039852
0000c0 00 bc 1c ba c4 f8 52 bd c0 9d fa bd b6 2b cf 3d
       -0.0005978942 -0.051506773 -0.1223712 0.10115759
0000d0 0c 56 5e 3d 70 0c ef 3c 00 c9 8d bd 90 b6 51 bc
       0.05428128 0.029180735 -0.06923103 -0.012799874
0000e0 b4 11 6b 3d 30 d0 ae bd a0 20 59 3c 8a 7c 95 bd
       0.05738993 -0.08535802 0.013252407 -0.072991446
0000f0 3a 50 86 bd 8a 99 cb bd 12 83 f7 3d a0 08 cd 3b
       -0.06558271 -0.099413946 0.120855466 0.0062571317
000100 a4 0f 5d bd 28 7b df bd 00 5f a9 3a d4 61 87 bd
       -0.053969994 -0.10912162 0.0012921989 -0.06610456
000110 64 91 03 bd 30 1c 30 3d 4c ef 5f 3d 86 9d 8d bd
       -0.032121077 0.04299563 0.05467157 -0.06914811
000120 d8 95 b7 3d a0 bd 3f bd 24 a9 98 bd e0 62 8b 3d
       0.08964127 -0.0468117 -0.07454136 0.06805968
000130 0e 41 c4 3d ee 77 b8 bd 10 b3 ce bd 0c d0 5b 3d
       0.09582721 -0.0900725 -0.10092747 0.053665206
000140 30 b8 b9 bd fa d5 8e 3d 08 4e 83 bc 80 ef b1 3b
       -0.09068334 0.069744065 -0.01602842 0.005430162
000150 ac 4a 94 bd 20 9a c2 3d 60 3f 15 3c 52 42 83 bd
       -0.07240805 0.09502053 0.009109348 -0.06409134
000160 48 43 85 3c 56 9d 81 bd 88 f8 5d bd 34 55 a4 3d
       0.016267434 -0.063288376 -0.054192096 0.08024064
000170 e0 45 cd bb d0 cf 45 3c f0 e9 7e bc cc 67 bb 3d
       -0.0062644333 0.012073472 -0.015558705 0.09150657
000180 6c 1d a3 bd 90 84 15 3c 14 f3 9f bd ee 50 85 3d
       -0.07964596 0.009125844 -0.07810035 0.06509577
000190 c2 29 ee 3d 84 b8 e1 bd e4 d7 29 3d 00 34 37 bd
       0.116290584 -0.11021522 0.041465655 -0.044727325
0001a0 18 e2 75 bd f8 73 3b 3d 60 e5 a9 bc 32 16 d8 bd
       -0.060030073 0.045764893 -0.020739257 -0.105511084
0001b0 f0 29 c1 3c 94 ff a3 bd 68 50 54 3d d8 dc b8 bd
       0.023579568 -0.08007732 0.051834494 -0.090264976
0001c0 fa 82 84 3d 60 8a 2e bd 74 ad e9 bd 6e 28 8b bd
       0.06470294 -0.042612433 -0.11410037 -0.06794821
0001d0 fc b4 02 3d 42 b7 d8 3d 98 05 89 3d d4 25 c1 bd
       0.03191088 0.10581829 0.0669052 -0.09431043
0001e0 20 31 0c bd a0 98 62 bd 38 70 dd bc d0 5a b2 3c
       -0.034226537 -0.055321336 -0.02703105 0.021771818
0001f0 f2 8d 84 3d a4 45 49 3d 00 fc 2d bc 4e 7f ce 3d
       0.064723864 0.04913868 -0.0106191635 0.10082875
000200 78 33 8a 3d 58 99 f2 3c f0 bf 59 3d 00 60 7f 38
       0.06748098 0.029614136 0.05316156 6.0886145e-05
000210 68 77 a3 bd f0 e8 e0 3c ae 85 b6 bd 30 de 03 3c
       -0.07981759 0.027454823 -0.08912216 0.008048579
000220 46 69 a3 bd 4c 60 10 bd 32 fb b2 3d 14 5f 15 bd
       -0.07979064 -0.035248086 0.08739318 -0.036467627
000230 ba f8 ec bd fa 7c bb 3d f8 13 9f bc 00 58 ca bd
       -0.11570878 0.09154697 -0.019418702 -0.09880066
000240 3e fb d2 3d 66 99 f8 3d b0 91 45 bd ac c6 a8 bd
       0.10301827 0.121386334 -0.04823464 -0.08241019
000250 a2 39 a9 bd 20 f6 49 bc 98 2b 0b bd 80 f0 72 bc
       -0.08262946 -0.012326747 -0.03397712 -0.0148278475
000260 98 e7 b5 3d 00 bb 66 3c 40 88 9f 3b e0 e4 c6 bc
       0.088820636 0.01408267 0.004868537 -0.024279058
000270 e2 f7 c7 3d dc a5 99 3d 20 93 a4 3b 88 a5 48 bd
       0.09764077 0.07502338 0.0050224215 -0.048985988
000280 b8 35 09 bd 58 71 f0 bd 66 b2 fb bd 3c 62 a5 bd
       -0.033498496 -0.117403686 -0.12289886 -0.08075377
000290 b8 ea c3 bd 80 d7 24 3d 4a 04 f8 3d 7c 2e 1a 3d
       -0.095662534 0.04024458 0.12110193 0.037641987
0002a0 20 24 50 bc d0 a5 4a 3c c6 ce d7 3d 30 9f ee 3d
       -0.012703925 0.012368634 0.10537486 0.11651456
0002b0 76 d6 9d bd 90 bb 43 3c c0 78 1f bb de 7b ec 3d
       -0.07706921 0.011946574 -0.0024333447 0.11547063
0002c0 28 1e 07 3d f4 71 17 3d 1c d1 74 bd 90 84 53 3d
       0.032987744 0.03697391 -0.059769735 0.051640093
0002d0 e4 2c 44 bd 18 45 d7 3c 08 54 d3 3c cc b0 3b 3d
       -0.047894374 0.026278064 0.025796905 0.045822904
0002e0 ae bd 8e 3d 80 3b 4a bd 46 33 c3 bd a8 68 6d bd
       0.06969772 -0.04937315 -0.09531264 -0.057961136
0002f0 ec a9 10 bd f0 0c f2 3c 50 fa be bc 7e 4a d0 3d
       -0.0353183 0.029547185 -0.023312718 0.10170458
000300 b0 44 bc bd 6e 27 b9 3d ea fe 82 bd f8 c9 24 bd
       -0.091927886 0.09040724 -0.06396277 -0.040231675
000310 c4 85 6c 3d bc ee fc 3d 8c 0e 25 bd 20 50 6b 3c
       0.057744756 0.123502225 -0.040297076 0.014362365
000320 68 70 35 3d 54 94 f9 3d 28 75 1d bd 60 d6 5c bd
       0.044296652 0.121864945 -0.038441807 -0.05391538
000330 f0 ae 58 bc d0 e8 80 3c 90 36 8b 3c 6a b1 bd bd
       -0.013225302 0.015736014 0.01699379 -0.09262355
000340 3c ce 84 bd 46 b7 99 3d c0 21 7a 3d e0 db a9 3b
       -0.064846486 0.0750566 0.061067343 0.005183682
000350 72 af b9 bd 28 44 df bd 70 5e 38 3c e6 7a 8c bd
       -0.09066667 -0.10901672 0.011252984 -0.068593785
000360 70 24 c0 bc 9c 29 c0 3d 00 ba 1e bb 40 e6 cf 3c
       -0.023454875 0.09382936 -0.0024219751 0.025378346
000370 28 e8 b0 bd 2c 94 d9 3d f0 67 01 bc 00 32 cd bc
       -0.0863803 0.10623965 -0.007898316 -0.025048256
000380 70 1a 58 bd e0 6e d8 bc 90 d5 8d 3c b0 92 58 3d
       -0.052759588 -0.026420057 0.017313749 0.052874267
000390 ca af da 3d f6 51 e2 bd 02 19 f2 bd 28 cb 87 bc
       0.1067806 -0.11050789 -0.11821176 -0.016576365
0003a0 74 e0 75 3d b2 ce 8f bd 18 b5 40 3d f8 a8 bd 3d
       0.06002851 -0.07021846 0.047047704 0.09260744
0003b0 44 29 e9 3d 48 a6 ed 3c 80 79 12 bb 30 9d 3b bc
       0.11384824 0.029009953 -0.0022350252 -0.011451051
0003c0 50 0c 88 3d 22 45 e8 bd 24 b9 37 bd 0a b6 c3 bd
       0.066429734 -0.11341311 -0.0448543 -0.095562056
0003d0 38 40 7e 3d 80 23 06 bd b8 63 cf 3d e8 a6 b1 3d
       0.062072963 -0.0327487 0.10126442 0.08674413
0003e0 d6 15 92 3d 08 6b 93 3d 24 e1 3d 3d 30 c9 0b 3d
       0.07133071 0.07198149 0.04635729 0.034127414
0003f0 18 a8 d1 3c 06 f3 f3 3d ee f8 d6 3d d0 91 2d 3c
       0.025592849 0.119115874 0.10496698 0.010593846

bias f4 [64]
000000 56 7f 82 3d f0 d4 31 3d 6e bb ab 3d 34 77 54 bd
       0.06371944 0.043415964 0.08385359 -0.051871493
000010 b4 74 0c bd f8 61 f5 bd 8e 83 d3 bd 56 59 96 bd
       -0.034290984 -0.11981577 -0.103278264 -0.07341258
000020 9a aa 80 bd d6 3c ff bd 08 00 df bc d4 f5 48 3d
       -0.0628254 -0.124627754 -0.027221695 0.049062565
000030 80 9b 08 bc 76 a0 d4 bd 54 1b 81 bd 38 43 a7 bd
       -0.008337855 -0.10382168 -0.063040406 -0.08167118
000040 30 cb e6 3c 90 16 68 bd a8 6a d7 3d 10 d2 e8 bd
       0.02817306 -0.056662142 0.1051839 -0.11368191
000050 00 ef 0b 3b de 37 e8 bd ce 42 9f bd 72 b2 a7 3d
       0.0021352172 -0.11338781 -0.07776414 0.081883326
000060 14 f9 10 3d 3e d3 b4 bd 4a 4d a8 bd 6c cf 13 3d
       0.03539379 -0.08829354 -0.08217867 0.036086485
000070 14 8a ff bd 48 bf 66 bd 18 09 95 bd 90 2e b7 3c
       -0.12477508 -0.056334764 -0.07277125 0.02236107
000080 d2 77 f3 bd 80 e4 3d bd 78 9c 98 3c a4 05 dc bd
       -0.11888088 -0.046360493 0.018629298 -0.10743263
000090 bc 43 c2 3d 44 2d 42 3d 18 c2 49 bd d4 c5 37 3d
       0.094855756 0.04740645 -0.049257368 0.044866398
0000a0 60 38 09 3d 44 e5 37 bd 80 74 e2 3a 0a 73 cf bd
       0.03350103 -0.04489638 0.0017277151 -0.10129364
0000b0 58 20 54 bd 1c f1 ae bd a8 65 8d 3d 60 cd 9e 3b
       -0.051788658 -0.08542082 0.06904155 0.00484626
0000c0 b0 4d 83 bd a8 cd fb bc b6 1b a0 bd 54 64 20 3d
       -0.06411302 -0.030737713 -0.078177854 0.03915818
0000d0 e8 75 f5 3c 00 79 20 bd 46 65 e3 3d 24 8c f7 3d
       0.029963449 -0.039177895 0.11103301 0.120872766
0000e0 a4 26 93 bd fc 85 81 bd e2 da 91 3d 68 a6 ea 3c
       -0.071851045 -0.063243836 0.07121827 0.028643802
0000f0 cc 8d a9 3d 00 90 51 b8 7e 74 a7 3d b6 74 86 bd
       0.08278999 -4.9963593e-05 0.08176516 -0.065652296

weight f4 [1, 64]
000000 b2 c8 97 41 d4 1b b1 3f ee 3a 0e 41 fb d0 ce bf
       18.972996 1.3836617 8.889387 -1.6157526
000010 03 67 08 41 73 89 bc 40 38 7e 0c 41 18 09 83 41
       8.525149 5.8917785 8.780815 16.37944
000020 66 de ed 40 2f 13 45 40 e1 43 8d 40 b5 e8 ad 40
       7.4333982 3.0792959 4.414536 5.4346566
000030 78 ea 82 40 41 86 b9 40 2e 84 c4 40 e5 1e 4b 40
       4.0911217 5.7976384 6.141135 3.1737607
000040 3c e2 ca 3f f7 9c b1 40 53 fa e2 bf cd 9b 96 40
       1.5850291 5.5504107 -1.7732643 4.7065187
000050 32 32 ce 40 10 c0 8e 3f 69 f7 fa bf 6a 02 5c 40
       6.4436274 1.1152363 -1.9606754 3.4376473
000060 49 2f 7d bf 76 2d 7c 40 45 9e ca 3f 96 be bf 40
       -0.98900276 3.9402747 1.582955 5.992015
000070 49 94 07 41 8c 22 94 40 c6 6c 99 40 ee 6c 17 41
       8.473702 4.629217 4.794528 9.464094
000080 3a 4f d8 40 e7 04 6b 40 95 7d 70 40 9c 5a a8 40
       6.759671 3.6721742 3.757665 5.2610607
000090 05 ea 4c 40 82 68 fb 40 87 c9 61 3f 55 67 ef 3f
       3.2017834 7.8565073 0.8819813 1.870341
0000a0 2b eb 7b 40 87 ad c7 40 5d 2b ac 3f 74 87 b0 40
       3.9362285 6.2399325 1.3450733 5.516535
0000b0 8c 8a d5 40 42 34 de 40 6c 3c df 3f ae 25 cd 40
       6.6731625 6.943879 1.7440314 6.4108496
0000c0 22 c6 b9 40 60 48 3b bf ff 86 96 3f 79 b8 a9 40
       5.805436 -0.7315731 1.1759948 5.3037686
0000d0 ff a7 57 bd b1 37 16 40 2e df a3 40 41 88 a1 40
       -0.052650448 2.3471491 5.1209936 5.0478826
0000e0 0e 0b 77 41 98 c9 d5 40 80 39 af 40 1d 11 30 41
       15.440199 6.6808586 5.475769 11.004178
0000f0 d6 ed 08 c0 f3 c9 0f 41 20 cf ac 40 88 f5 53 41
       -2.1395164 8.986804 5.400284 13.247444
