cnn_models/cnn2_model0.2.pt (torch_old, 11130 bytes, 6 tensors)

weight f4 [1, 1, 3, 3]
0	0x3ffc3bba	1.9705727
1	0xbfd79937	-1.6843632
2	0x41106393	9.02431
3	0x3f8ab8d8	1.083766
4	0xbf582f9a	-0.84447634
5	0xc0122437	-2.2834604
6	0xbfddb3a8	-1.7320452
7	0x3fb59b83	1.4188083
8	0x3f8f2097	1.1181821

weight f4 [1, 1, 3, 3]
0	0xbf8e9cff	-1.1141661
1	0x3fcd9e3a	1.6063912
2	0xc04f2897	-3.2368524
3	0x3e7eece2	0.24895051
4	0x3e330e59	0.17485942
5	0xbe054e45	-0.13018139
6	0x3e7c6a76	0.24649987
7	0xbf33f99d	-0.70302755
8	0xbe9b2c80	-0.30307388

weight f4 [1, 1, 3, 3]
0	0xbe2ef500	-0.17085648
1	0xbe8f5386	-0.2799341
2	0xbf810f19	-1.0082732
3	0x3ed39892	0.4132734
4	0x3da1d93b	0.079027615
5	0x3d067d3c	0.032834277
6	0xbf46fe58	-0.7773185
7	0x3debd827	0.11515837
8	0xbf4ac491	-0.79206187

weight f4 [4, 4]
0	0x263a41e6	6.462102e-16
1	0xa63796d4	-6.369529e-16
2	0xa5e909ae	-4.0425616e-16
3	0xa6df4b76	-1.5494187e-15
4	0x3c254485	0.010087137
5	0xbc0ea58f	-0.008706464
6	0xbc78d05c	-0.0151863955
7	0xbbc5f270	-0.0060408637
8	0xbe0e4cd2	-0.13896492
9	0x3ee0db8e	0.43917507
10	0x3dbaccd1	0.09121097
11	0x3efa5917	0.48896095
12	0x2604f3a7	4.612691e-16
13	0xa6030c51	-4.5466447e-16
14	0xa5a6579c	-2.8855776e-16
15	0xa69f6401	-1.1059947e-15

bias f4 [4]
0	0xa4e13a56	-9.767702e-17
1	0x3a9085cc	0.0011026203
2	0x3e334383	0.17506222
3	0xa4a0c5f1	-6.9724265e-17

weight f4 [1, 4]
0	0xa68288b6	-9.057618e-16
1	0xb8d14f8f	-9.9807155e-05
2	0x3e8236a6	0.25432318
3	0xa63a5a96	-6.465448e-16
