cnn_models/cnn2_modelfrac0.075.pt (torch_old, 11118 bytes, 6 tensors)

weight f4 [1, 1, 3, 3]
0	0x3f7a8753	0.9786274
1	0xbf377e17	-0.7167677
2	0x3f86ea77	1.0540303
3	0xbd853f19	-0.065061755
4	0xbf05940a	-0.52179015
5	0x3c695b16	0.014242908
6	0x3f46285d	0.7740534
7	0xbe4d49e7	-0.20047723
8	0x3f0ced99	0.55050045

weight f4 [1, 1, 3, 3]
0	0x3ee5ffcd	0.44921723
1	0x3edca1d8	0.43092227
2	0x3ee67d36	0.45017403
3	0x3ec26186	0.3796503
4	0x3ebddefa	0.3708418
5	0x3eaca551	0.33719876
6	0x3e4e37de	0.20138499
7	0x3edbb154	0.42908728
8	0x3e758b87	0.23979007

weight f4 [1, 1, 3, 3]
0	0x3f4e5bd9	0.806089
1	0xbcf27019	-0.029594468
2	0x3f445c94	0.76703763
3	0xbf5f807a	-0.87305415
4	0xbf8b72b9	-1.0894386
5	0xbee76336	-0.4519288
6	0x3f8e216c	1.110395
7	0xbdb3b436	-0.08774607
8	0x3f514507	0.8174595

weight f4 [4, 4]
0	0x3e71dd7c	0.23619646
1	0x3e26fa28	0.16306365
2	0x3e39aef3	0.18133144
3	0x3e6d453e	0.23170945
4	0x3e84d222	0.2594157
5	0x3e3dddf7	0.18541704
6	0x3e4f861c	0.20266002
7	0x3e834f45	0.25646415
8	0x3e8777ce	0.2645859
9	0x3e952453	0.29129276
10	0x3e9e1a72	0.3087955
11	0x3e904190	0.2817502
12	0xbdd0cbda	-0.101951316
13	0xbd86bb3b	-0.0657868
14	0xbd9f22fe	-0.07770346
15	0xbdc95688	-0.09830958

bias f4 [4]
0	0xbb63f589	-0.0034783802
1	0xbb1a2d40	-0.0023525506
2	0x3abe9dd8	0.0014542891
3	0x3b8ed6b4	0.0043590907

weight f4 [1, 4]
0	0x3e138879	0.14407529
1	0x3e232da7	0.15935384
2	0x3e3dc4ec	0.18532151
3	0xbd7bd3ef	-0.061481413
