cnn_models/cnn2_model0.15.pt (torch_old, 11130 bytes, 6 tensors)

weight f4 [1, 1, 3, 3]
1.4442446 -3.0297537 8.692322 0.043213207 -1.531681 -0.31486306 -0.910543 0.94166493
0.26659542
00000000: 02dd b83f 7ce7 41c0 c013 0b41 5500 313d
00000010: 1f0e c4bf bb35 a1be 5919 69bf f410 713f
00000020: 327f 883e

weight f4 [1, 1, 3, 3]
0.9289534 -1.0405339 3.354919 -0.8041983 0.114142954 -0.74503624 -0.051915843 0.32522044
0.3444566
00000000: e4cf 6d3f 3730 85bf feb6 5640 f1df 4dbf
00000010: c8c3 e93d b2ba 3ebf b5a5 54bd 4b83 a63e
00000020: 9e5c b03e

weight f4 [1, 1, 3, 3]
0.08546032 0.21168625 1.3762447 0.0014409783 -0.3913924 -0.25839004 0.094303705 0.07341767
0.39613208
00000000: d205 af3d 48c4 583e c928 b03f 35df bc3a
00000010: 9664 c8be b34b 84be 4d22 c13d 015c 963d
00000020: d3d1 ca3e

weight f4 [4, 4]
-8.130253e-18 -4.2426765e-17 -1.5545503e-17 -1.8721294e-17 1.4599134e-16 7.618371e-16 2.7914228e-16 3.361687e-16
6.907123e-19 3.604388e-18 1.320674e-18 1.5904738e-18 -0.106978394 -0.51590705 -0.105926394 -0.08167524
00000000: 09fa 15a3 afa8 43a4 c861 8fa3 68ac aca3
00000010: 0a51 2825 a895 5b26 21ea a025 bec9 c125
00000020: bfdc 4b21 7bfa 8422 a7e5 c221 67b6 ea21
00000030: 7d17 dbbd 7c12 04bf f0ef d8bd 5945 a7bd

bias f4 [4]
-2.0330473e-17 3.6506448e-16 1.7271844e-18 -0.18752976
00000000: f983 bba3 0272 d225 2fe3 fe21 cd07 40be

weight f4 [1, 4]
5.68218e-18 -1.02031915e-16 -4.8273154e-19 0.023211269
00000000: aca2 d122 0345 eba4 2a7a 0ea1 8f25 be3c
