cnn_models/cnn2_model0.08.pt (torch_old, 11130 bytes, 6 tensors)

weight f4 [1, 1, 3, 3]
000000 44 6e e7 be 59 f9 2a 3f 3f cf 33 be 63 71 13 3f
       -0.45201313 0.66786724 -0.17559527 0.5759489
000010 c0 f0 27 3f be 7b ee be b9 9e 92 c0 e9 53 8e 3f
       0.6560173 -0.46578783 -4.5818753 1.1119357
000020 c3 01 91 be
       -0.28321657

weight f4 [1, 1, 3, 3]
000000 c4 f3 df bd 7e be ba bd 22 9c 88 be 35 91 16 3f
       -0.109351665 -0.09118365 -0.2668162 0.5881532
000010 da c1 fd 3e 5d 55 f0 be 96 9b d6 bf 5b ad 9b be
       0.4956196 -0.46940127 -1.6766231 -0.30405697
000020 ce 55 e3 3e
       0.444014

weight f4 [1, 1, 3, 3]
000000 2f 73 e8 bd e0 a0 98 3e d7 97 93 be c6 95 41 3e
       -0.113500945 0.29810238 -0.28826782 0.1890479
000010 2f 1d 3c 3c 88 1d bf bd 02 39 9d 3f cd 79 c6 be
       0.011481567 -0.093318045 1.2283022 -0.38764802
000020 a2 5d 34 3f
       0.7045537

weight f4 [4, 4]
000000 ea a5 79 bd d2 b9 a1 bd 22 27 35 be ab ef d0 bd
       -0.060949244 -0.078967705 -0.17690709 -0.10201963
000010 61 a5 79 3d 9e b9 a1 3d d6 26 35 3e 76 ef d0 3d
       0.060948733 0.07896732 0.17690596 0.102019235
000020 af fd 2f be 87 58 ff bd 69 94 b5 be 87 bc 44 be
       -0.17186616 -0.12468057 -0.3546479 -0.19212542
000030 2e a6 79 bd d0 b9 a1 bd 55 27 35 be ba ef d0 bd
       -0.060949497 -0.07896769 -0.17690785 -0.10201974

bias f4 [4]
000000 f8 e0 1e 3c ba e0 1e bc 3b 1c a9 3c df e0 1e 3c
       0.009697191 -0.009697134 0.020643344 0.009697168

weight f4 [1, 4]
000000 e1 b8 a0 bd a7 b8 a0 3d 44 09 1d be 02 b9 a0 bd
       -0.07847763 0.0784772 -0.15335566 -0.078477874
