cnn_models/cnn3_model0.08.pt (torch_old, 12223 bytes, 8 tensors)

weight f4 [4, 1, 3, 3]
0.054300725 1.0606146 -0.07706751 2.3879921 -2.213654 0.23636554 -0.13552952 0.88383925
0.33110482 -0.021673659 0.10762383 -0.060373556 0.6214966 0.34592354 0.05852346 -0.36789608
0.6490118 -2.5099719 -0.01491746 -0.048132773 1.5531906 -0.20715891 1.4136418 -3.5718582
-0.06428879 0.16706981 0.74882287 0.5984404 0.31232172 0.41308334 0.92364955 0.2814457
0.19861789 1.2320279 0.41787243 0.22776291
00000000: 706a 5e3d 38c2 873f 92d5 9dbd ddd4 1840
00000010: 82ac 0dc0 cf09 723e 40c8 0abe 4a43 623f
00000020: 9286 a93e f58c b1bc e269 dc3d 434a 77bd
00000030: 671a 1f3f e41c b13e 4cb6 6f3d e05c bcbe
00000040: a325 263f 61a3 20c0 5d68 74bc df26 45bd
00000050: f3ce c63f 7721 54be 37f2 b43f 5399 64c0
00000060: d7a9 83bd 5914 2b3e dbb2 3f3f 6433 193f
00000070: a2e8 9f3e a97f d33e 4c74 6c3f a719 903e
00000080: 7d62 4b3e 17b3 9d3f 60f3 d53e ae3a 693e

bias f4 [4]
-0.3724167 0.3278116 0.22167604 3.4934928
00000000: 67ad bebe ecd6 a73e 0bff 623e 6395 5f40

weight f4 [4, 4, 3, 3]
0.096736126 0.31986594 0.1277777 -0.18405448 0.5381178 -1.3836719 -0.51265013 -0.109782286
-0.2990922 0.0018944627 0.019197853 -0.00011764494 0.055048876 -0.72306716 -0.5947275 1.3062131
-0.49014285 -0.6738314 -0.39641723 0.060144592 -0.0357335 -1.1953925 0.8423202 0.0763279
-0.04268957 -0.2067542 0.30033952 0.1662284 0.2562473 0.13316701 0.5293177 0.10092761
0.6712106 1.261379 1.0967362 2.0237389 -0.2556996 -0.240843 -0.03118995 0.30085018
-0.801723 0.37382066 -0.399385 -1.1932449 -1.6907794 0.9864787 0.5763117 -0.16428013
-0.80120146 0.48292774 0.5147136 0.011271581 -0.012235953 -0.13461328 -0.20664588 0.1362962
-0.13736545 0.11622107 -0.7627818 -0.09866569 0.31613973 -0.14319469 -0.5331068 0.5192781
-0.33243948 1.2187159 1.450488 0.13635318 -0.2448198 0.9166639 1.9625292 -0.09213795
-0.40604764 -1.2321719 -0.7247635 -0.30699116 -0.8751329 0.4540531 -0.121536575 0.10740523
0.31473213 0.26999676 -0.3378407 0.32782322 0.5873943 0.03756409 0.15098779 0.10951171
0.05530721 0.10824943 1.4650683 1.1848288 0.72111636 1.0537252 -0.18902321 -0.427087
-0.6909846 0.0163518 -0.03904453 0.82454693 2.959186 -0.35584965 1.3284892 -0.82910323
1.4618577 0.2141998 -0.66220284 0.5096048 0.42926052 0.6792757 -0.07367545 -0.03492953
-0.6434008 0.15919806 -0.015086759 0.13352762 0.17528664 -0.29618916 -0.6148038 -1.1687729
0.59406084 0.18186536 0.76515585 -0.075899765 -0.018422863 0.3308706 -0.9039615 -0.10305523
0.2820992 0.06299912 0.4944466 1.3433679 -0.6654938 -0.30299258 -0.43611616 -0.112896346
-1.2301575 -0.43155104 0.32816252 -0.44331354 0.15122141 -0.5833024 0.11216499 0.12896658
00000000: 971d c63d 78c5 a33e 28d8 023e c778 3cbe
00000010: 17c2 093f 291c b1bf 0a3d 03bf 89d5 e0bd
00000020: 9d22 99be 9f4f f83a d144 9d3c 25b8 f6b8
00000030: ee7a 613d ee1a 39bf 1040 18bf fe31 a73f
00000040: 01f4 fabe 3780 2cbf 33f7 cabe 2d5a 763d
00000050: 4a5d 12bd 9f02 99bf 4ca2 573f cd51 9c3d
00000060: 42db 2ebd 5fb7 53be 1ac6 993e c737 2a3e
00000070: d932 833e ef5c 083e 5d81 073f 23b3 ce3d
00000080: 75d4 2b3f de74 a13f da61 8c3f f084 0140
00000090: 0feb 82be 8c9f 76be 1182 ffbc 0909 9a3e
000000a0: b83d 4dbf 6c65 bf3e 317c ccbe 40bc 98bf
000000b0: 766b d8bf de89 7c3f 2a89 133f 0d39 28be
000000c0: 8a1b 4dbf 4e42 f73e 45c4 033f 70ac 383c
000000d0: 4e79 48bc 10d8 09be fa9a 53be 3b91 0b3e
000000e0: 87a9 0cbe 5005 ee3d ab45 43bf 3d11 cabd
000000f0: 11dd a13e a1a1 12be b079 08bf 69ef 043f
00000100: 8235 aabe e2fe 9b3f 97a9 b93f 2ba0 0b3e
00000110: 0bb2 7abe 7caa 6a3f 2834 fb3f d2b2 bcbd
00000120: 7ae5 cfbe cfb7 9dbf 1a8a 39bf f22d 9dbe
00000130: b608 60bf a679 e83e 2be8 f8bd 46f7 db3d
00000140: 9224 a13e 043d 8a3e 75f9 acbe 72d8 a73e
00000150: 795f 163f cedc 193d 8b9c 1a3e ad47 e03d
00000160: d089 623d e1b1 dd3d 5c87 bb3f 78a8 973f
00000170: 159b 383f 78e0 863f 4d8f 41be 26ab dabe
00000180: 5ee4 30bf 36f4 853c 28ed 1fbd 8215 533f
00000190: 4e63 3d40 ed31 b6be ef0b aa3f 1c40 54bf
000001a0: 271e bb3f 3157 5b3e 2086 29bf 7675 023f
000001b0: 09c8 db3e 03e5 2d3f 28e3 96bd 4412 0fbd
000001c0: eab5 24bf d104 233e 742e 77bc 77bb 083e
000001d0: 577e 333e 1ba6 97be c863 1dbf 5a9a 95bf
000001e0: 5f14 183f ea3a 3a3e 41e1 433f 5671 9bbd
000001f0: 8beb 96bc df67 a93e 056a 67bf 9f0e d3bd
00000200: 4e6f 903e af05 813d 1b28 fd3e 7bf3 ab3f
00000210: cd5d 2abf d821 9bbe 9e4a dfbe 3336 e7bd
00000220: cd75 9dbf 42f4 dcbe eb04 a83e fef9 e2be
00000230: c9d9 1a3e 4e53 15bf c2b6 e53d d10f 043e

bias f4 [4]
0.91138554 0.06814192 0.74752253 -2.1892946
00000000: 9050 693f fe8d 8b3d a35d 3f3f 671d 0cc0

weight f4 [4, 4, 2, 2]
0.04031762 -0.02306682 0.28407076 0.42854896 0.27708745 -0.41889986 -0.1584194 -0.41258278
0.017441975 -0.16648805 0.20626184 0.0026948655 -0.010047367 0.060823914 -0.359764 -0.3032834
0.13741808 -0.016741266 0.22478555 -0.18619205 -0.047548886 -0.405943 -0.15921813 -0.18744482
-0.09954714 -0.65164316 0.38521534 0.93681914 0.08866428 0.83604944 -0.3224228 0.494503
0.07129939 0.24326062 -0.05536597 0.40514448 0.1970173 0.5987578 0.5987222 -0.60738325
-0.3603251 0.011715513 -0.6734713 -0.054560978 -0.14029697 -0.053941336 -0.33516064 -0.29650155
0.06465159 -0.41138956 0.18829006 0.21321872 -0.20318784 0.37920538 0.0067469627 -0.19074003
-0.48540434 0.37390575 -0.26971582 0.20741607 -0.16720663 -0.33406827 0.17867929 -0.017602352
00000000: 1724 253d a1f6 bcbc b971 913e c56a db3e
00000010: 68de 8d3e 0b7a d6be b238 22be 0d3e d3be
00000020: 79e2 8e3c d87b 2abe 4e36 533e 579c 303b
00000030: b69d 24bc 7f22 793d fd32 b8be f647 9bbe
00000040: 53b7 0c3e fb24 89bc 2f2e 663e 21a9 3ebe
00000050: 9fc2 42bd c3d7 cfbe 140a 23be 89f1 3fbe
00000060: 5fdf cbbd 16d2 26bf f23a c53e 61d3 6f3f
00000070: 9e95 b53d 5607 563f 9a14 a5be 7f2f fd3e
00000080: 6a05 923d 5019 793e 6dc7 62bd 196f cf3e
00000090: e7be 493e 3148 193f dc45 193f 787d 1bbf
000000a0: 887c b8be 6cf2 3f3c 9d68 2cbf 557b 5fbd
000000b0: 02aa 0fbe 97f1 5cbd 2d9a abbe 0dcf 97be
000000c0: 0e68 843d a7a1 d2be 1ccf 403e 0256 5a3e
000000d0: 7910 50be 3527 c23e a015 dd3b 5b51 43be
000000e0: eb86 f8be 9370 bf3e 3118 8abe e164 543e
000000f0: 3738 2bbe ff0a abbe b4f7 363e cf32 90bc

bias f4 [4]
-0.6577878 0.877178 -0.2345139 0.14864291
00000000: c864 28bf bd8e 603f 6924 70be d935 183e

weight f4 [1, 4, 3, 3]
0.07378243 0.24716274 0.07540083 0.17885986 0.46345824 -0.20197655 -0.167084 -0.06430561
-0.6039537 0.0743792 0.26929894 0.66102844 -0.29778656 -0.2560324 0.2213052 -0.38519168
-0.3271717 0.050973926 0.3611483 -0.16203788 0.012703088 0.35952815 -0.01977376 -0.45294526
0.29058564 -0.15535857 -0.4635217 0.3094086 0.012020984 -0.390808 0.33749515 0.114095226
-0.0061861947 -0.14387174 -0.2451065 -0.04838796
00000000: 3e1b 973d 3b18 7d3e c06b 9a3d 0a27 373e
00000010: 664a ed3e f1d2 4ebe 1118 2bbe a9b2 83bd
00000020: b69c 1abf 1f54 983d 8de1 893e 2939 293f
00000030: 7b77 98be ae16 83be d59d 623e d837 c5be
00000040: 0d83 a7be 09ca 503d 6ee8 b83e 42ed 25be
00000050: 9d20 503c 1314 b83e 95fc a1bc 71e8 e7be
00000060: a4c7 943e 5116 1fbe b752 edbe ce6a 9e3e
00000070: a9f3 443c fc17 c8be 2acc ac3e c2aa e93d
00000080: 90b5 cabb 1d53 13be 33fd 7abe 7432 46bd

weight f4 [1, 4]
-0.5115353 0.284718 0.40876555 -0.3408911
00000000: faf3 02bf 8fc6 913e b849 d13e 4789 aebe
