cnn_models/cnn4_model0.08.pt (torch_old, 14285 bytes, 12 tensors)

weight f4 [4, 1, 3, 3]
0	0x3dc154e0	0.09440017
1	0x3d867556	0.06565349
2	0xbed1f0ac	-0.4100393
3	0x3c86617e	0.01640391
4	0xbe0b96f2	-0.136318
5	0x400ba823	2.1821373
6	0x3ef04580	0.46928024
7	0xc0510453	-3.265889
8	0xbed0ce24	-0.40782273
9	0x3eea5552	0.4576822
10	0xbe4a1347	-0.19733916
11	0x3d81fdea	0.063472584
12	0xc05ea88d	-3.4790375
13	0x3fa70425	1.304814
14	0x3f00f3a2	0.50371754
15	0xbcc77fac	-0.02435287
16	0x3df86c95	0.121300854
17	0x3efa9b97	0.4894683
18	0x4000fed3	2.0155532
19	0x3e4c4b4e	0.19950601
20	0x3f3acc2d	0.729678
21	0x3ee1bcdb	0.44089398
22	0xbffb8134	-1.9648805
23	0x3d527b8c	0.051387355
24	0x3f34cd97	0.70626205
25	0x3f0d7466	0.55255735
26	0x3e231018	0.15924108
27	0xbf466356	-0.77495325
28	0xc08d0aa3	-4.4075484
29	0x3e30476c	0.17214745
30	0xbe95331b	-0.29140553
31	0x402bdeb2	2.6854672
32	0xbed24e4f	-0.4107537
33	0xbd92500b	-0.07144173
34	0xbf20abac	-0.6276195
35	0xbf2fe056	-0.68701684

bias f4 [4]
0	0x3f00e32f	0.50346655
1	0x3db961cf	0.09051859
2	0x3cc52556	0.024065655
3	0x3de0606b	0.1095589

weight f4 [4, 4, 3, 3]
0	0x3e4167f6	0.18887314
1	0x3f333022	0.6999532
2	0xbf0786f7	-0.52940315
3	0xbeaf237c	-0.3420676
4	0x3faf0a04	1.3674932
5	0x3f337562	0.70100987
6	0x3fb5f9ff	1.4216918
7	0x3fa2d242	1.2720416
8	0x3f4f65ce	0.81014717
9	0x3f3c4006	0.7353519
10	0xbd99998d	-0.074999906
11	0x3e0b49c4	0.13602358
12	0x3e06d404	0.13166815
13	0xbe771146	-0.24127683
14	0x3e91be8c	0.28465688
15	0x3e5d98f5	0.2164038
16	0xbd3fb1af	-0.04680031
17	0xbd2dfeee	-0.042479448
18	0xbdc4b8a2	-0.096055284
19	0x3f156a95	0.58365756
20	0x3eee875f	0.46587655
21	0x3d28a8d5	0.041176636
22	0xbe89d42a	-0.2691968
23	0x3e2d1b0b	0.16904847
24	0x3f3bd167	0.733664
25	0xbed152de	-0.40883535
26	0xbe1ac173	-0.15112858
27	0xbd3483fa	-0.044071175
28	0xbd5e4e79	-0.054274056
29	0xbe9039cc	-0.28169096
30	0xbe6b26bd	-0.22963996
31	0x3f326730	0.696887
32	0xbec85eb7	-0.39134762
33	0x3e915fcb	0.28393397
34	0xbf0d6041	-0.55224997
35	0x3f111790	0.5667658
36	0x3ea272da	0.3172825
37	0x4004c209	2.074343
38	0x3e6fef60	0.23431158
39	0xbfcdab39	-1.6067878
40	0xbe760762	-0.24026254
41	0x3e13ff0c	0.14452761
42	0xbebba587	-0.36649725
43	0x3ed80dcf	0.42198035
44	0x3e43c9a2	0.19119886
45	0xbe929e88	-0.28636575
46	0xbe996985	-0.29963318
47	0x3cf1bca0	0.029508889
48	0xbe195660	-0.14974356
49	0x3d2a65ff	0.041601177
50	0x3fcfe8f3	1.6242965
51	0x3dfdcf39	0.1239304
52	0x3ee1d6d1	0.44109204
53	0xbfa25da9	-1.2684833
54	0xbdb8ffaf	-0.09033143
55	0x3d7b063c	0.061285242
56	0x3e485145	0.19562252
57	0xbec46c2e	-0.38363785
58	0x3dbb3ce2	0.09142472
59	0x3e156c2a	0.14592043
60	0x3ee7a3fd	0.452423
61	0xbef60c11	-0.4805608
62	0x3fd8b4ca	1.6930172
63	0xbe6c3ba6	-0.23069629
64	0xbfa903c4	-1.3204274
65	0xbf7b10e6	-0.9807266
66	0xbf128c0b	-0.5724494
67	0x3ef40f97	0.47668144
68	0xbd281e56	-0.041044556
69	0xbf1b8de0	-0.6076336
70	0xbfe7a570	-1.8097363
71	0xbeb8da97	-0.3610427
72	0x3e3fbedb	0.1872515
73	0xbe95eb34	-0.29281008
74	0x3e83ea0b	0.25764498
75	0x3efc2502	0.49246985
76	0xbe1b1590	-0.15144944
77	0xbf0f3ca3	-0.559519
78	0x3e8bc387	0.27297613
79	0x3e0ba4a5	0.13637026
80	0xbecd90c7	-0.4014952
81	0x3f9d555f	1.2291678
82	0xbe5ed887	-0.21762286
83	0x3f965cf6	1.174712
84	0x3fbece00	1.4906616
85	0xbefdc48f	-0.49564025
86	0x3f09ff5c	0.5390527
87	0x3f9936ca	1.1969845
88	0xbe0fc1df	-0.140388
89	0xbd093346	-0.033496164
90	0x3e0e605b	0.13903944
91	0x3d34dcdb	0.044155937
92	0xbecff22d	-0.40614453
93	0xbf2389a1	-0.6388188
94	0x3f78d010	0.9719248
95	0xbe2e3800	-0.1701355
96	0x3f3f21f9	0.74661213
97	0xbf50da71	-0.81583315
98	0x3e6a9069	0.2290665
99	0xbfc934e2	-1.5719264
100	0xbef5dd6b	-0.4802049
101	0x3d179571	0.037007753
102	0x3fd29e86	1.6454628
103	0xbfbcfc85	-1.4764563
104	0xbe95c499	-0.29251555
105	0xbe46bb49	-0.19407381
106	0xbf331b2b	-0.6996333
107	0xbe470b4e	-0.19437906
108	0x3f92ac5c	1.145885
109	0x3dc8381d	0.09776328
110	0x3ea1708c	0.3153118
111	0xbe8688c7	-0.26276228
112	0xbfe7e204	-1.811585
113	0x3cadb791	0.021205695
114	0x3f1ca1a2	0.6118413
115	0x3efea0a8	0.49731946
116	0x3ed23dc0	0.41062737
117	0x3f33b3d2	0.7019626
118	0x3de279ec	0.11058411
119	0x3e291f30	0.16515803
120	0x3f13c217	0.5771803
121	0xbf103dd5	-0.5634435
122	0x3eec0129	0.46094635
123	0xbd367a9a	-0.044550516
124	0xbe0ed8eb	-0.13949935
125	0x3fbbaabe	1.4661481
126	0x3a25be00	0.00063225627
127	0xbf658e97	-0.896707
128	0xbe8e8ee1	-0.27843383
129	0xbc8aae13	-0.016928708
130	0xbf1d9a05	-0.6156314
131	0x3f13e1d0	0.5776644
132	0x3be0b814	0.0068578813
133	0x3ea88d24	0.32920182
134	0x3e5f17b7	0.2178639
135	0x3e2cee42	0.16887763
136	0x3fa3863e	1.2775342
137	0x400e5ba4	2.2243433
138	0x3ecb510c	0.3971027
139	0xbf43cb31	-0.7648192
140	0xbfaa4087	-1.3300942
141	0xbf3111a7	-0.6916756
142	0xbf13ee0f	-0.57785124
143	0xbe20c95d	-0.15701814

bias f4 [4]
0	0xbf61babd	-0.88175565
1	0x3ee96d61	0.45591262
2	0xbeb38d67	-0.3506882
3	0xbf3a6743	-0.72813815

weight f4 [4, 4, 3, 3]
0	0x3d02ee0a	0.031965293
1	0xbe03e6de	-0.12881038
2	0x3f8ca6c9	1.0988399
3	0x3d809add	0.06279538
4	0xbe915369	-0.2838395
5	0x3e46f807	0.19430552
6	0xbf12b0ec	-0.5730121
7	0xbf06ac67	-0.52606815
8	0x3dc8fcc5	0.09813837
9	0xbe7e0a0b	-0.24808519
10	0x3edd922f	0.43275592
11	0x3fa2b499	1.2711364
12	0xbe9d577d	-0.3073081
13	0xbf928207	-1.1445931
14	0x3ec5230a	0.38503295
15	0x3db8eeed	0.090299465
16	0x3dd61fee	0.10455309
17	0x3e32f56a	0.1747643
18	0xbdb7d5e8	-0.08976346
19	0xbdbff41a	-0.093727306
20	0xbf09e0c7	-0.5385861
21	0xbeb54037	-0.35400555
22	0x3e208bfc	0.156784
23	0xbf01fdb0	-0.5077772
24	0xbe0a1164	-0.13483196
25	0x3f00bea0	0.5029087
26	0xbebfdc1c	-0.37472618
27	0x3daa8702	0.08326532
28	0xbe437920	-0.19089174
29	0xc003571a	-2.0521913
30	0xbd006cac	-0.031353638
31	0x3d522d3f	0.05131268
32	0x3f937371	1.1519605
33	0xbe83f7e2	-0.25775057
34	0xbe8c4939	-0.27399614
35	0xbcd669bd	-0.026173467
36	0x3e593fc5	0.21215732
37	0x3d3d2340	0.046176195
38	0x3e9fe572	0.3122974
39	0x3eebae7e	0.46031564
40	0xbf4f272c	-0.80919147
41	0x3f3b9900	0.73280334
42	0x3e1e1fc8	0.15441811
43	0x3b056a11	0.002035741
44	0x3efffc10	0.49996996
45	0xbf0aedca	-0.5426909
46	0xbe84bf69	-0.25927284
47	0xbed1b94b	-0.4096168
48	0xbc0176e4	-0.007901881
49	0xbe95a088	-0.29224038
50	0x3e5add0d	0.21373387
51	0xbf603a2b	-0.8758876
52	0xbf980a04	-1.1878057
53	0xbf0bcef2	-0.5461265
54	0x3e3964b7	0.18104826
55	0xbd934690	-0.07191193
56	0x3d3b0eab	0.045668285
57	0x3eb12ca5	0.34604374
58	0xbeca6ba0	-0.39535236
59	0xbd50ebdc	-0.051006183
60	0x3ef971ca	0.48719627
61	0xbfd7545b	-1.6822618
62	0xbd8831fe	-0.0665016
63	0x3dd37690	0.103253484
64	0x3d9ba28e	0.07599364
65	0x3edd217b	0.43189606
66	0xbefd4e8b	-0.49473986
67	0xbf4f354e	-0.8094071
68	0x3eca2235	0.39479223
69	0x3f463c12	0.7743541
70	0xbe1a95d6	-0.1509622
71	0x3f05056f	0.51961416
72	0x3dd9ca74	0.10634318
73	0x3f01f1ce	0.5075959
74	0xbe80b0a2	-0.2513476
75	0x3e12133d	0.14265151
76	0xbcedf830	-0.02904901
77	0xbe597208	-0.21234906
78	0x3e317d5c	0.17332977
79	0x3e7f4281	0.24927713
80	0x3e85b48f	0.26114318
81	0xbe4cb98d	-0.19992657
82	0x3ed4dae2	0.41573244
83	0x3e961f70	0.2932086
84	0x3ea0120e	0.31263775
85	0x3dab4514	0.08362785
86	0x3b6cf204	0.0036154995
87	0x3f746d2a	0.9547907
88	0x3f75943c	0.9592931
89	0x3ee5e63f	0.44902226
90	0x3f822476	1.0167377
91	0xbf19cbf3	-0.60076827
92	0x3edfeb0c	0.43734014
93	0xbea3addc	-0.31968582
94	0x3ea7fd23	0.32810315
95	0xbdb10340	-0.08643198
96	0xbce2d123	-0.027687615
97	0xbd81b6b3	-0.06333675
98	0x3e06b0a2	0.13153318
99	0x3f694a59	0.9112907
100	0xbf84a86e	-1.0363901
101	0xbe4601f9	-0.1933669
102	0xbed88a80	-0.42293167
103	0xbf0b8d9d	-0.5451296
104	0x3eed380f	0.46331832
105	0x3e957667	0.29191896
106	0xbe0ab0ce	-0.13544008
107	0xbd4927ed	-0.04911034
108	0x3e2e8cd8	0.17045915
109	0x3e2aa2a0	0.16663599
110	0x3e269a5c	0.16269821
111	0xbeea40bf	-0.45752522
112	0xbdfba711	-0.12287725
113	0x3de134db	0.109964095
114	0x3ea8c0ae	0.32959503
115	0x3ec0e139	0.3767183
116	0x3db6095e	0.088885054
117	0xbf2cc7d0	-0.6749239
118	0xbe0b2643	-0.13588814
119	0x3e5ac581	0.21364404
120	0x3e970dec	0.2950281
121	0x3e81a34f	0.25319907
122	0xbe3ccc03	-0.184372
123	0xbf58d7fc	-0.84704566
124	0xbe440db3	-0.19145851
125	0x3ebeb691	0.37248662
126	0xbef4555c	-0.47721374
127	0x3ed7233d	0.42019072
128	0xbef76f1f	-0.48326966
129	0xbd9c3e69	-0.07629091
130	0xbf417d8c	-0.75582194
131	0xbeb772df	-0.35829827
132	0xbfa4768a	-1.2848675
133	0x3f47abaa	0.77996314
134	0x3d133276	0.035936795
135	0x3f009410	0.50225925
136	0xbf102200	-0.5630188
137	0xbe39fcfb	-0.1816291
138	0x3f3ca5ee	0.7369069
139	0xbe8f1d1b	-0.27951893
140	0x3f347b55	0.7050069
141	0x3eda0782	0.42583853
142	0x3e01fd39	0.12694253
143	0x3e935df8	0.2878263

bias f4 [4]
0	0xbe25d6a4	-0.1619516
1	0x3dd9a2c2	0.10626747
2	0xbe34dfa4	-0.17663437
3	0x3d5e5889	0.054283652

weight f4 [4, 4, 3, 3]
0	0xbe958746	-0.29204768
1	0xbe10f154	-0.1415456
2	0xbdda79c0	-0.10667753
3	0x3e358ad3	0.17728738
4	0xbf0fb6fa	-0.56138575
5	0xbd7603c2	-0.060062177
6	0xbda4985f	-0.08036875
7	0x3da80a6a	0.08205111
8	0x3ebb91bb	0.3663462
9	0x3f669207	0.9006657
10	0xbe4c36a4	-0.19942719
11	0x3dc32118	0.095277965
12	0x3d811080	0.06301975
13	0x3ea20c58	0.31650043
14	0x3e1709da	0.14749852
15	0xbd4ced02	-0.050030716
16	0x3eb00e79	0.34386042
17	0x3f06818a	0.5254141
18	0x3f0beb0b	0.5465552
19	0xbe2a2d30	-0.166188
20	0xbef39174	-0.4757191
21	0x3e0ae85b	0.13565199
22	0x3d8d6092	0.06903185
23	0x3dec36ec	0.11533913
24	0xbf2f0c80	-0.6837845
25	0x3e84ea26	0.2595989
26	0xbe9ef175	-0.31043592
27	0xbda100f4	-0.0786151
28	0x3e4456b1	0.19173695
29	0xbdbaf77d	-0.09129236
30	0x3e8417aa	0.25799304
31	0xbd478de6	-0.04871931
32	0xba3118d8	-0.0006755716
33	0x3ec14f51	0.37755826
34	0xbf40a4c3	-0.75251406
35	0xbd37b227	-0.044847634
36	0x3e234ad4	0.15946513
37	0x3e7e53a1	0.2483659
38	0xbeb9778d	-0.36224023
39	0xbc5fe411	-0.013665215
40	0x3ea4d85a	0.32196313
41	0xbf86c762	-1.0529597
42	0x3e06022c	0.13086766
43	0xbebf4d65	-0.37363735
44	0x3df207c5	0.11817888
45	0xbd84e19d	-0.06488345
46	0xbeb3da86	-0.35127658
47	0xbda50da3	-0.080592416
48	0x3dbc60e0	0.09198165
49	0xbe717d4c	-0.23582953
50	0xbf04193c	-0.51601005
51	0x3db1e7de	0.08686803
52	0xbd12a7a3	-0.035804402
53	0xbe4da08c	-0.20080775
54	0xbd1445d5	-0.03619941
55	0x3e430914	0.19046432
56	0x3ed05be9	0.40695122
57	0x3eb22098	0.34790492
58	0xbe20880d	-0.15676899
59	0xbf21f342	-0.63261807
60	0xbe99ec85	-0.30063263
61	0xbe42f2ff	-0.19038008
62	0xbe43d626	-0.1912466
63	0xbdf776ed	-0.1208323
64	0xbf203f5b	-0.6259667
65	0xbe130494	-0.14357215
66	0x3e573449	0.21016039
67	0xbe1700f3	-0.14746456
68	0xbedde166	-0.43336028
69	0x3c9e6ca6	0.019338917
70	0x3e22d58b	0.15901773
71	0x3e970f3c	0.2950381
72	0xbb5c36b9	-0.0033601953
73	0xbd61b446	-0.055103563
74	0xbdd0095e	-0.10158037
75	0xbe939319	-0.28823164
76	0xbe279f11	-0.16369273
77	0x3cb82034	0.022476293
78	0x3f05c2ee	0.52250564
79	0x3e9c6a4d	0.3054985
80	0x3e57b154	0.21063739
81	0xbdd8e3f3	-0.10590353
82	0x3e3b2b5a	0.18278256
83	0xbde79f87	-0.11309724
84	0x3e70d584	0.2351895
85	0xbe962f30	-0.29332876
86	0x3d944828	0.07240325
87	0xbf06aba8	-0.52605677
88	0x3f8c3b09	1.0955516
89	0xbe1ac527	-0.1511427
90	0xbf7936e1	-0.97349364
91	0x3e8ef0fe	0.27918237
92	0x3e2a1513	0.16609602
93	0x3dddd7e2	0.10832192
94	0xbe7157c3	-0.23568635
95	0x3e83bb0f	0.25728652
96	0xbd5b359a	-0.053517915
97	0xbdba0c6c	-0.090844005
98	0xbe68a05b	-0.22717421
99	0xbe4be939	-0.19913186
100	0xbeb35f15	-0.3503348
101	0x3e412ced	0.18864794
102	0x3f148df8	0.5802913
103	0x3e9093a5	0.28237644
104	0x3c687980	0.014189124
105	0x3e860151	0.2617288
106	0xbea6b657	-0.3256099
107	0x3e5eb81c	0.2174992
108	0xbd30ef27	-0.043196823
109	0x3ee0c440	0.43899727
110	0x3dfd681d	0.12373374
111	0x3da8a5ef	0.08234774
112	0xbf4d4a52	-0.8019153
113	0xbf0977d6	-0.5369848
114	0xbe84388d	-0.25824395
115	0x3efb81db	0.4912251
116	0x3ed6c1c8	0.41944718
117	0x3e048fc8	0.12945473
118	0x3e7f3759	0.24923457
119	0xbe283fda	-0.16430607
120	0x3ddef315	0.10886208
121	0xbed99ccb	-0.42502436
122	0x3e9c922e	0.30580276
123	0x3e8b9932	0.27265316
124	0x3ecbae7b	0.39781556
125	0xbe60740f	-0.21919273
126	0xbdc81fcc	-0.0977169
127	0x3ddee415	0.10883347
128	0xbe5d985e	-0.21640155
129	0x3d331eaa	0.043730415
130	0x3d4f287e	0.050575726
131	0xbed8e94c	-0.4236549
132	0x3d925c42	0.07146503
133	0xbf3342c0	-0.7002373
134	0x3f2d3ac2	0.6766778
135	0x3eb8f593	0.36124858
136	0x3cda5e6e	0.026656356
137	0x3f579d65	0.8422454
138	0xbe726655	-0.23671849
139	0xbda0c913	-0.07850852
140	0xbe3d1592	-0.1846526
141	0x3d55a5aa	0.052159943
142	0xbcfd156d	-0.030894006
143	0xbeb14814	-0.34625304

bias f4 [4]
0	0xbde30580	-0.110850334
1	0x3e1fe12b	0.15613239
2	0xbe4c5d69	-0.19957508
3	0xbedc2f75	-0.43004957

weight f4 [4, 4, 2, 2]
0	0x3e6edd01	0.23326494
1	0xbd92a8cd	-0.071611024
2	0xbea3ab52	-0.31966645
3	0xbda97d5a	-0.08275862
4	0x3d141dbf	0.03616118
5	0x3e526f1a	0.20550194
6	0xbe72b1c4	-0.23700625
7	0xbd2aad6d	-0.041669298
8	0x3db0ada4	0.08626869
9	0xbe6ebdb5	-0.23314555
10	0xbe991cf0	-0.2990489
11	0x3da13d51	0.07873023
12	0x3df4d9e6	0.11955623
13	0x3e454d53	0.19267778
14	0xbcc1cfdb	-0.023658684
15	0x3e599b9a	0.21250764
16	0x3e72bf49	0.23705782
17	0xbdf49907	-0.1194325
18	0xbda57148	-0.08078247
19	0x3cd4ee44	0.02599252
20	0x3d30af9d	0.043136228
21	0xbcdf4a7e	-0.0272572
22	0x3e024c23	0.12724356
23	0xbdfb6360	-0.12274814
24	0xbdb74af6	-0.089498445
25	0x3c2fd890	0.010732785
26	0x3dc8f996	0.0981323
27	0x3ceb186e	0.028698172
28	0xbe97045b	-0.2949551
29	0xbec03b7c	-0.37545383
30	0xbe4592e8	-0.19294322
31	0x3e990f92	0.29894692
32	0xbe81e0e7	-0.253669
33	0x3e27afee	0.16375706
34	0xbe91a0f0	-0.28443098
35	0x3cf4dd25	0.029890606
36	0x3eb121be	0.34596056
37	0xbeac6b27	-0.336755
38	0x3d294648	0.04132679
39	0xbdcef661	-0.10105587
40	0x3e92ecd2	0.28696305
41	0xbdfe9a85	-0.12431816
42	0xbe15c586	-0.1462613
43	0x3dbc6035	0.091980375
44	0x3d297f8e	0.04138141
45	0x3b969c45	0.0045962655
46	0xbd20d3b1	-0.039264385
47	0x39f49abf	0.00046654601
48	0x3e48cb6c	0.1960885
49	0x3ca91120	0.020638049
50	0x3c88815f	0.016663251
51	0x3c0a7843	0.008451524
52	0xbe3dddbd	-0.18541618
53	0xbeb55c58	-0.35422015
54	0xbe269996	-0.16269526
55	0xbe6d05ea	-0.23146787
56	0xbcc0e864	-0.023548312
57	0x3ea959d4	0.33076346
58	0xbe1aeba3	-0.15128951
59	0x3d1fcebb	0.039015513
60	0xbe69fb56	-0.22849783
61	0x3d5aae0c	0.05338864
62	0x3d6667d0	0.056251347
63	0xbe4548a6	-0.19265994

bias f4 [4]
0	0xbe1a5b70	-0.15073943
1	0x3dc849fa	0.09779735
2	0x3ddb5051	0.107086785
3	0x3cc95b69	0.02457972

weight f4 [1, 4, 3, 3]
0	0x3dc8dba9	0.09807522
1	0xbccaab06	-0.024739753
2	0xbe052f54	-0.13006335
3	0x3e958ad6	0.29207486
4	0x3d8a5a26	0.06755476
5	0xbad6921f	-0.0016370452
6	0xbe98a2eb	-0.29811797
7	0xbe30f7df	-0.17282055
8	0x3e7a50a9	0.24444832
9	0x3e53e988	0.20694554
10	0x3e0d41d6	0.13794646
11	0xbdf19ec8	-0.11797863
12	0x3d706171	0.058686677
13	0xbe4cf9ba	-0.20017138
14	0xbe16055c	-0.14650482
15	0x3d1c966c	0.03822939
16	0x3da8f467	0.08249741
17	0x3e598e9b	0.21245806
18	0xbe9d1383	-0.3067895
19	0x3d4f1fc0	0.05056739
20	0x3e56328d	0.20917721
21	0x3ddc77ad	0.10765014
22	0xbda0dec0	-0.07854986
23	0x3c4a2f62	0.0123403985
24	0xbe412f75	-0.1886576
25	0x3d281ab2	0.041041084
26	0x3c4e2bd0	0.012583688
27	0x3e4a60b9	0.1976346
28	0x3e48eb83	0.1962109
29	0x3e28e19d	0.16492315
30	0x3d87882c	0.066177696
31	0x3cb9c877	0.022678597
32	0xbd80c607	-0.06287771
33	0xbe85dc43	-0.2614461
34	0xbc703e2b	-0.0146632595
35	0xbecb4009	-0.39697292

weight f4 [1, 4]
0	0x3e68dc8c	0.22740382
1	0x3e01a715	0.12661393
2	0xbc94bfde	-0.018157896
3	0xbe8e948d	-0.2784771
