cnn_models/cnn_model0.05.pt (torch_old, 13495 bytes, 3 tensors)

weight f4 [1, 1, 3, 3]
-0.19931966 -0.13752103 -1.0752139 0.03110696 0.5662556 -0.112878 -0.22110717 -0.24148108
-0.05907585
00000000: 741a 4cbe 50d2 0cbe 9ca0 89bf 06d4 fe3c
00000010: 21f6 103f 952c e7bd eb69 62be d146 77be
00000020: 85f9 71bd

weight f4 [1, 1, 2, 2]
-0.0835716 -0.4779791 -0.067073554 -0.03747256
00000000: 9627 abbd adb9 f4be dc5d 89bd d47c 19bd

weight f4 [1, 4]
-0.002089397 0.26787043 -0.0667711 -0.00910236
00000000: 44ee 08bb 5026 893e 49bf 88bd 1122 15bc
