cnn_models/cnn_model0.2.pt (torch_old, 13495 bytes, 3 tensors)

weight f4 [1, 1, 3, 3]
-0.061811674 -0.04539861 -0.1791216 -0.28081888 0.28920025 -0.30954126 -0.1126712 -0.20911565
-0.27521363
00000000: 3d2e 7dbd e5f3 39bd a76b 37be 7ec7 8fbe
00000010: 0e12 943e 317c 9ebe 28c0 e6bd 6a22 56be
00000020: cde8 8cbe

weight f4 [1, 1, 2, 2]
-0.10076736 -0.1877465 0.03791818 -0.07656797
00000000: 1e5f cebd 9e40 40be 1850 1b3d abcf 9cbd

weight f4 [1, 4]
0.08738052 0.20357153 -0.09619384 0.011950577
00000000: 8ff4 b23d 0e75 503e 4701 c5bd 5acc 433c
