cnn_models/cnn_model1.pt (torch_old, 13446 bytes, 3 tensors)

weight f4 [1, 1, 3, 3]
00000000: 83b0 bfbe b34e 46be 3724 05bf d373 1ebd
00000010: 623c e63e f921 04bf 03a8 94be 0c21 173e
00000020: d599 8f3d
-0.37439355 -0.19365959 -0.52008384 -0.038684677 0.44967943 -0.5161434 -0.29034433 0.147587
0.07011763

weight f4 [1, 1, 2, 2]
00000000: d3f6 f6bd 4c7a 2bbe 1c47 0c3c 24f2 2ebd
-0.12058797 -0.16745871 0.008561876 -0.042711392

weight f4 [1, 4]
00000000: 5a7b dd3d d994 e93d b9b9 63bb 1a42 c53c
0.10814543 0.114053436 -0.003474815 0.024079371
