cnn_models/cnn_model0.5.pt (torch_old, 13495 bytes, 3 tensors)

weight f4 [1, 1, 3, 3]
0	0xc13eb16a	-11.918314
1	0xc1c1d78d	-24.23025
2	0x4197f908	18.996597
3	0xc0071ca6	-2.1111236
4	0x42230976	40.75924
5	0x425e52f7	55.58102
6	0xc250764c	-52.115524
7	0x42fde95d	126.95579
8	0x420b00f1	34.75092

weight f4 [1, 1, 2, 2]
0	0x41d6ef88	26.866959
1	0x418fa15f	17.953794
2	0x3ebc0aa0	0.36726856
3	0x410d5ede	8.835661

weight f4 [1, 4]
0	0x41af78cb	21.93398
1	0x41c41ec4	24.515022
2	0x3fc9bfc6	1.576165
3	0x418b1e1e	17.389706
