cnn_models/cnn_model0.7.pt (torch_old, 13495 bytes, 3 tensors)

weight f4 [1, 1, 3, 3]
1.0691029 0.21839653 -1.5957025 -0.38795108 2.0349274 -1.299081 0.50794095 -1.2081608
-0.71115345
00000000: 5dd8 883f 57a3 5f3e fb3f ccbf 86a1 c6be
00000010: 403c 0240 4948 a6bf 6b08 023f 03a5 9abf
00000020: 270e 36bf

weight f4 [1, 1, 2, 2]
2.30456 1.4329938 0.635768 1.5124891
00000000: e97d 1340 576c b73f b1c1 223f 3e99 c13f

weight f4 [1, 4]
-1.3488216 -1.546417 -1.5318182 0.2916846
00000000: 30a6 acbf fef0 c5bf 9e12 c4bf af57 953e
