cnn_models/cnn_model0.4.pt (torch_old, 13495 bytes, 3 tensors)

weight f4 [1, 1, 3, 3]
-4.895969 -13.393138 6.04558 -18.392569 6.574054 4.6056185 15.14791 -19.851389
23.066458
00000000: c7ab 9cc0 4b4a 56c1 6475 c140 fb23 93c1
00000010: a65e d240 3a61 9340 d75d 7241 a5cf 9ec1
00000020: 1b88 b841

weight f4 [1, 1, 2, 2]
4.0187974 -2.1977384 2.3410769 -1.1749206
00000000: fd99 8040 bfa7 0cc0 34d4 1540 cc63 96bf

weight f4 [1, 4]
-8.122389 -10.143708 -2.6280396 0.3467664
00000000: 4ef5 01c1 a14c 22c1 cd31 28c0 5e8b b13e
