cnn_models/cnn_model0.1.pt (torch_old, 13495 bytes, 3 tensors)

weight f4 [1, 1, 3, 3]
0	0x3ea94cea	0.33066493
1	0x3cd8e3e4	0.026475854
2	0x3f1dd8dd	0.6165903
3	0x3e87cb49	0.26522282
4	0xbebece11	-0.3726659
5	0x3d617f04	0.055052772
6	0xbde47498	-0.11155051
7	0xbd267f8a	-0.040648974
8	0x3e8119b8	0.25214934

weight f4 [1, 1, 2, 2]
0	0x3d8f8ca3	0.07009246
1	0x3db58e15	0.088649906
2	0x3e630f5f	0.22173832
3	0x3da04c23	0.07827022

weight f4 [1, 4]
0	0x3e1413f9	0.14460744
1	0x3d1d44bb	0.038395625
2	0xbd21132e	-0.03932493
3	0x3dd80efc	0.10549733
