cnn_models/cnn_model0.3.pt (torch_old, 13495 bytes, 3 tensors)

weight f4 [1, 1, 3, 3]
0	0x3f7d2797	0.98888534
1	0xc25450fc	-53.079086
2	0xc193bb9b	-18.466604
3	0x3ff3d612	1.9049704
4	0xc258ca31	-54.197453
5	0xc1dc50fa	-27.53954
6	0x4009c966	2.1529174
7	0xc07ba780	-3.9320984
8	0x418e7ed2	17.811924

weight f4 [1, 1, 2, 2]
0	0x40fc7799	7.8895993
1	0xc1a93625	-21.151438
2	0xbfd2f077	-1.6479634
3	0x40e61435	7.1899667

weight f4 [1, 4]
0	0x414fb04f	12.980544
1	0xc15cff36	-13.812307
2	0x3fefe817	1.8742703
3	0x41628636	14.157766
