cnn_models/cnn_model0.6.pt (torch_old, 13495 bytes, 3 tensors)

weight f4 [1, 1, 3, 3]
000000 52 76 10 42 8e 8b a4 42 c8 e3 fc 41 cc de f0 41
       36.115547 82.27257 31.611221 30.108788
000010 f0 60 b9 41 cf 75 a4 42 b0 c6 12 c2 30 80 8e c1
       23.172333 82.230095 -36.69403 -17.812592
000020 a8 dd 5f 40
       3.4979038

weight f4 [1, 1, 2, 2]
000000 d3 8e 5b c1 62 d1 e1 c1 d6 eb 73 c1 6a 10 75 c1
       -13.722369 -28.227238 -15.245077 -15.316507

weight f4 [1, 4]
000000 43 1e d8 41 ac b0 ad 41 bc 01 04 41 5b 32 2b 42
       27.014776 21.711266 8.250423 42.799175
