cnn_models/cnn_model0.08.pt (torch_old, 13495 bytes, 3 tensors)

weight f4 [1, 1, 3, 3]
00000000: ed56 4a3e 4307 603e 3d50 2c3f 78c2 073e
00000010: cef6 a7be 2b6b e03c 6b2f 94bc 3e60 f8bd
00000020: 56c0 823e
0.19759722 0.2187777 0.67309934 0.13257778 -0.32805485 0.027394852 -0.018089017 -0.12127732
0.25537366

weight f4 [1, 1, 2, 2]
00000000: c220 edbb 1067 8c3e e63d 0a3e 8e42 fabc
-0.007236571 0.2742238 0.13500175 -0.030549314

weight f4 [1, 4]
00000000: cd0c 513d 5a03 a53d 519e 15be d6ae b33d
0.0510376 0.0805728 -0.14611174 0.08773582
