cnn_models/simplecnn_model0.01.pt (torch_old, 12203 bytes, 4 tensors)

weight f4 [1, 1, 3, 3]
0	0xbd68272a	-0.056677975
1	0x3f082840	0.53186417
2	0x3d68373e	0.056693308
3	0x3ed82471	0.42215303
4	0xc0579727	-3.3686006
5	0x3ef06314	0.4695059
6	0x3b251eca	0.0025195354
7	0x3ee93674	0.45549357
8	0xbdd9e2d1	-0.10638965

weight f4 [8, 64]
0	0xbe3d90b9	-0.18512239
1	0xbe0141bb	-0.1262273
2	0x3e3b4481	0.18287851
3	0xbdf1f3d0	-0.11814082
4	0x3d1c5a4d	0.038172055
5	0x3c3398b0	0.0109616965
6	0x3ea2fc2d	0.3183302
7	0xbe1aadbf	-0.15105341
8	0x3d79b61b	0.060964685
9	0xbd681f37	-0.056670394
10	0x3df35a6c	0.11882481
11	0x3c078867	0.008272267
12	0xbd0e919e	-0.03480684
13	0xbdbddd96	-0.0927078
14	0x3dec3e65	0.11535338
15	0x3bb0005e	0.0053711375
16	0xbe43348f	-0.19063018
17	0x3d253f63	0.040343653
18	0xbddd1892	-0.10795702
19	0x3da31193	0.079623364
20	0xbdef5adc	-0.11687252
21	0xbe13eb21	-0.14445163
22	0x3e1577f7	0.14596544
23	0xbd38b327	-0.045092728
24	0xbc2bae10	-0.010478511
25	0x3cfeb81b	0.031093648
26	0x3d82a525	0.06379155
27	0xbd82b8e7	-0.063829236
28	0xbe6e24cf	-0.23256229
29	0x3d934856	0.07191531
30	0x3dfd5754	0.12370172
31	0xbbbaf800	-0.0057058334
32	0xbd610114	-0.05493267
33	0x3d7a7d28	0.061154515
34	0x3d808262	0.062748685
35	0xbe465c67	-0.19371186
36	0x3e004c8d	0.12529202
37	0x3d833604	0.06406787
38	0xbe07c5be	-0.13259026
39	0xbebcaeb5	-0.3685204
40	0xbe2c8125	-0.1684614
41	0xbd92e1d9	-0.07171983
42	0xbd8ab09e	-0.06771968
43	0x3d4993e2	0.049213298
44	0xbdf386bd	-0.11890934
45	0x3ce98be2	0.028509084
46	0xbe4b3812	-0.19845608
47	0xbda08322	-0.078375116
48	0xbc9b79d0	-0.018978983
49	0x3e40eb7f	0.18839835
50	0xbde7c3ec	-0.11316666
51	0x3e84d600	0.2594452
52	0xbe829a43	-0.25508317
53	0xbdb6d41a	-0.08927174
54	0xbd928deb	-0.07155975
55	0xbd850bec	-0.064964145
56	0xbe580eca	-0.21099392
57	0xbdcc64e9	-0.099801846
58	0x3b2a835f	0.0026018245
59	0x3e32efe6	0.17474326
60	0x3c626c46	0.01381976
61	0x3e8eb5d7	0.27873108
62	0xbe38e4c0	-0.18056011
63	0x3e4b5b6e	0.19859096
64	0xbe5ed277	-0.21759973
65	0x3c8583a0	0.016298115
66	0xbe00f91a	-0.12595025
67	0xbd45c4ea	-0.048283495
68	0xbefb1f0a	-0.49047118
69	0xbe985a8b	-0.2975658
70	0x3ec7f10f	0.390511
71	0xbe3d5668	-0.18489993
72	0xbd574b30	-0.05256194
73	0x3e8f32b4	0.2796837
74	0x3cef4fc0	0.029212832
75	0x3c16871f	0.009187489
76	0x3d09868d	0.033575583
77	0xbdd222ee	-0.102605686
78	0xbd692237	-0.056917395
79	0xbea36a7e	-0.31917185
80	0xbdf46993	-0.11934199
81	0xbdef2e5c	-0.11678764
82	0xbc4d483f	-0.012529432
83	0xbd892cf4	-0.06698027
84	0x3dd8c409	0.10584266
85	0x3cc74eed	0.024329627
86	0x3dd7f7be	0.105453
87	0xbe404c33	-0.18779068
88	0xbd9f0d01	-0.07766152
89	0xbdc4f850	-0.09617674
90	0xbe6a98ce	-0.22909853
91	0xbe166085	-0.14685257
92	0xbe0d35e9	-0.13790096
93	0x3db66b61	0.089072
94	0xbda92b21	-0.08260179
95	0x3d299736	0.04140397
96	0x3effa8ca	0.49933463
97	0x3c561a58	0.013067804
98	0xbd65233e	-0.055941813
99	0xbe52dac2	-0.20591262
100	0x3e7e4ab9	0.24833192
101	0x3d03ac58	0.03214678
102	0x3db74f4b	0.08950671
103	0x3e7c505e	0.24640033
104	0xbe8030f0	-0.25037336
105	0x3e29469f	0.16530846
106	0x3d8875ee	0.06663118
107	0x3cd6cb1c	0.026219897
108	0xbcb36d5d	-0.021902734
109	0xbe759824	-0.23983818
110	0x3e0a14a6	0.13484439
111	0x3ed26577	0.41093037
112	0xbe049080	-0.12945747
113	0xbdfb9e2b	-0.122860275
114	0xbcc1eae5	-0.023671577
115	0xbd31e875	-0.04343458
116	0x3c67e6ee	0.014154179
117	0x3daf8e21	0.08572031
118	0xbe2d66d9	-0.16933765
119	0xbef25371	-0.47329286
120	0xbed67387	-0.41885015
121	0x3e4a710b	0.19769685
122	0xbe5e3587	-0.21700107
123	0xbea1b180	-0.31580734
124	0xbdac7df6	-0.08422463
125	0xbca76a55	-0.020436445
126	0x3e4c888f	0.19973968
127	0x3d769177	0.06019732
128	0x3d69f5e4	0.057119265
129	0x3e2de7d5	0.16982968
130	0x3b8c9330	0.004290007
131	0xbcda5090	-0.026649743
132	0x3d2da9f8	0.042398423
133	0x3c2d2f63	0.01057038
134	0x3e273728	0.16329634
135	0x3d0c7771	0.034293596
136	0x3e662342	0.22474387
137	0x3d975103	0.07388499
138	0xbddb2803	-0.10700991
139	0xbd94a9cb	-0.07258948
140	0x3eb12893	0.34601268
141	0xbd80dadd	-0.06291745
142	0xbd9118f0	-0.070848346
143	0x3de39041	0.111114986
144	0xbefc532f	-0.49282214
145	0xbdc84e85	-0.097806014
146	0xbcc19d21	-0.023634495
147	0xbe2ab1c2	-0.16669372
148	0xbe0330e0	-0.12811613
149	0x3da38a8d	0.07985411
150	0x3d19bfd4	0.037536457
151	0xbefaa219	-0.48951796
152	0xbd63cc23	-0.0556146
153	0x3e3d6d35	0.1849869
154	0x3e4ac9de	0.19803569
155	0x3dc55aee	0.09636484
156	0x3dd6f3b5	0.10495702
157	0x3e8d287f	0.2756996
158	0x3c8ea963	0.017414754
159	0x3f12484f	0.57141584
160	0x3e8e0413	0.27737483
161	0x3de08623	0.109630845
162	0x3e20a7ab	0.1568896
163	0xbd0b72c8	-0.03404501
164	0xbe22ef35	-0.15911563
165	0xbe99142c	-0.29898202
166	0xbe0c1699	-0.13680495
167	0xbcaf74c6	-0.021417987
168	0xbea25202	-0.31703192
169	0x3e563ec1	0.20922376
170	0x3dbb77c0	0.091537
171	0x3c803cf1	0.01565406
172	0x3df438db	0.11924907
173	0x3e123445	0.14277752
174	0xbd66da1b	-0.056360345
175	0x3dcdcbd7	0.10048645
176	0x3ec7d191	0.39027074
177	0x3d9bdfd7	0.076110534
178	0xbe0d93aa	-0.1382586
179	0x3e111067	0.14166413
180	0x3db783c2	0.08960678
181	0xb987717d	-0.00025833762
182	0x3ca3a423	0.019975727
183	0xbda6689f	-0.08125424
184	0xbeb9d712	-0.36296898
185	0x3e58d258	0.2117399
186	0xbdae1762	-0.08500554
187	0x3eaf818e	0.3427853
188	0xbcd2e1d6	-0.025742453
189	0xbe37ae6f	-0.17937635
190	0x3e23118c	0.15924662
191	0x3d1e1e77	0.038603272
192	0xbe94e0e7	-0.29077837
193	0x3f1201b5	0.57033855
194	0xbef22fb2	-0.47302014
195	0xbe297f0e	-0.16552374
196	0xbdd73292	-0.105076924
197	0x3e835bb3	0.25655898
198	0x3dab0ba7	0.08351832
199	0xbecbac7b	-0.3978003
200	0x3e91b787	0.28460333
201	0xbe9a3d06	-0.30124682
202	0xbed120cc	-0.40845335
203	0xbe407399	-0.18794097
204	0x3d964d14	0.0733892
205	0x3cee0c14	0.029058494
206	0x3dc42853	0.09578004
207	0x3e24c707	0.16091548
208	0x3a8f8270	0.0010948908
209	0xbd1cde03	-0.038297664
210	0x3e1c1a08	0.15244305
211	0xbe95d0e8	-0.29260945
212	0xbdd12ffc	-0.102142304
213	0x3ddd7a8c	0.108143896
214	0x3be0284a	0.0068407403
215	0x3cc95801	0.024578096
216	0xbea1217d	-0.31470862
217	0xbd98f9aa	-0.07469495
218	0x3a00d7ac	0.000491495
219	0x3da67056	0.08126895
220	0x3dd9d813	0.10636916
221	0xbd0cb85c	-0.034355506
222	0xbdd792a8	-0.10526019
223	0x3d1ee403	0.038791668
224	0x3e09208e	0.13391325
225	0x3c7dcd77	0.015490881
226	0xbdf2d643	-0.118572734
227	0x3e1ccf00	0.15313339
228	0xbd9e6204	-0.07733539
229	0xbd9874ff	-0.0744419
230	0xbe70485c	-0.23465103
231	0x3e8bad9c	0.2728089
232	0xbeaae4d1	-0.33377698
233	0xbd32d490	-0.043659747
234	0x3dc62413	0.09674849
235	0x3d344ce5	0.044018645
236	0xbada20e6	-0.0016641885
237	0x3e04ad1a	0.12956658
238	0xbe3d4607	-0.18483745
239	0xbe6fe0f4	-0.23425657
240	0x3ea7eca2	0.32797724
241	0x3e094159	0.13403834
242	0x3e1b6e7a	0.15178862
243	0xbe9dd328	-0.30825162
244	0x3dab1d26	0.08355169
245	0xbda61a2e	-0.08110462
246	0xbe54c41a	-0.20777932
247	0xbdc62ded	-0.096767284
248	0xbe467d04	-0.19383627
249	0xbe72acbf	-0.2369871
250	0x3e857b29	0.26070526
251	0x3de90e14	0.11379638
252	0xbec6e219	-0.38844374
253	0x3bc609a7	0.006043631
254	0xbdc3c714	-0.095594555
255	0x3da58ee2	0.08083893

bias f4 [8]
0	0xbe239c6f	-0.15977643
1	0xbe0f5f20	-0.14001131
2	0xbec31cf8	-0.3810804
3	0x3e8d389d	0.27582255
4	0x3edb1035	0.42785802
5	0xbeaf80f0	-0.3427806
6	0x3e85344f	0.2601647
7	0xbe0e6d26	-0.13908824

weight f4 [1, 8]
0	0x3dd96399	0.106147
1	0x3dbbd819	0.09172077
2	0xbdbf0c54	-0.09328523
3	0x3dbe31b5	0.092868246
4	0xbde6cd69	-0.11269648
5	0x3daff9d3	0.08592572
6	0x3df3abe6	0.118980214
7	0x3df1a5b2	0.11799182
